pth/Binary_model_parameters.pth (torch, 523096 bytes, 10 tensors)

lstm.weight_ih_l0 f4 [400, 20]
0	0x3ed61ee7	0.41820452
1	0x3ec16b2e	0.37777084
2	0x3dede18d	0.11615286
3	0xbbcdfbb2	-0.006286108
4	0x3d43af1e	0.047774427
5	0xbe3d187c	-0.18466371
6	0xbdf4d9d4	-0.1195561
7	0x3e809e7a	0.25120908
8	0x3e9eded4	0.3102938
9	0xbe4bee7b	-0.19915192
10	0xbe19ba1e	-0.15012404
11	0xbee43c7c	-0.44577396
12	0x3d837989	0.06419665
13	0x3e386398	0.18006742
14	0xbc6ec261	-0.014572711
15	0xbf85d31a	-1.0455048
16	0xbe87ead2	-0.2654634
17	0xbe58811d	-0.21143003
18	0xbfa3b14e	-1.2788484
19	0xbef2769d	-0.4735612
20	0x3e907bb2	0.28219372
21	0x3e830e43	0.25596818
22	0x3f2b00b4	0.6679795
23	0x3ef64229	0.4809735
24	0x3f1dffcf	0.6171846
25	0x3f4c0626	0.7969688
26	0x3f8ffe31	1.1249448
27	0x3f884577	1.0646199
28	0x3fb42bc4	1.4075856
29	0x3fcbd0cc	1.5923095
30	0x3e99eeec	0.30065095
31	0x3f3ed4d2	0.7454349
32	0x3fcfe621	1.6242105
33	0x3fb72740	1.4308853
34	0x3f2178ef	0.63075155
35	0x3dec0901	0.11525155
36	0x3a3b7a7b	0.0007151735
37	0xbeaf65eb	-0.34257445
38	0x3e3fcc2b	0.18730228
39	0x3de08462	0.1096275
40	0xbe3878b8	-0.180148
41	0x3de3cb68	0.11122781
42	0xbe2ee4b0	-0.17079425
43	0x3eac68f9	0.33673838
44	0xbd9706cc	-0.07374343
45	0x3d027097	0.031845655
46	0x3d85c8c3	0.06532433
47	0xbe06dbb7	-0.13169752
48	0x3e1a0073	0.15039234
49	0xbe06db71	-0.13169648
50	0x3e31799f	0.17331551
51	0x3dff9bbe	0.12480877
52	0x3e3a8151	0.18213393
53	0x3df76921	0.120805986
54	0x3c952549	0.018206256
55	0x3edfb9c4	0.43696415
56	0xbe78b7d4	-0.24288875
57	0x3eb7762c	0.35832345
58	0x3d8c6988	0.06856066
59	0x3dae45a9	0.0850938
60	0x3ea57bae	0.32320923
61	0x3f09e0b7	0.5385851
62	0x3eefff36	0.46874398
63	0x3f225503	0.6341097
64	0xbdd8bdc4	-0.1058307
65	0xbedb2d41	-0.42807963
66	0xbe98198f	-0.29707
67	0xbedb4cb9	-0.42831972
68	0xbecbd23d	-0.39808837
69	0xbea41224	-0.3204509
70	0xbf032ae8	-0.51237345
71	0xbf425944	-0.7591746
72	0xbe305509	-0.17219938
73	0xbe637bb0	-0.22215152
74	0xbdca54a2	-0.09879424
75	0xbdf3dacf	-0.11906969
76	0xbf0b1383	-0.5432665
77	0xbe97d202	-0.2965241
78	0xbebf1c93	-0.37326488
79	0x3d2a6dfe	0.041608803
80	0x3d8a54e0	0.0675447
81	0x3e394c5b	0.18095534
82	0x3e162a32	0.14664534
83	0x3e48085d	0.1953444
84	0x3e5f85c9	0.21828379
85	0xbdb05448	-0.086098254
86	0xbd7adbaa	-0.061244644
87	0x3e4581a2	0.19287732
88	0x3eba35a0	0.36369038
89	0x3f070cd3	0.52753943
90	0xbec6a4d6	-0.38797635
91	0xbd8b6cae	-0.068078384
92	0x3f2509e7	0.64468235
93	0x3fd35db1	1.6512967
94	0xbd55c450	-0.05218917
95	0xbedaa526	-0.42704123
96	0x3dfb2fad	0.12264953
97	0xbe0a0ea4	-0.13482147
98	0x3e927f0f	0.28612563
99	0x3ea1e52d	0.3162016
100	0x3ed274e1	0.41104797
101	0x3f32d6d0	0.6985903
102	0x3f8122c8	1.0088739
103	0x3f7054cd	0.93879396
104	0x3f291fd7	0.6606421
105	0x3e893edc	0.2680577
106	0x3f06f21b	0.52713174
107	0x3de2943e	0.11063431
108	0x3f3e0cc6	0.7423824
109	0x3ee64569	0.4497483
110	0xbdeaa504	-0.114572555
111	0xbc7c1d9e	-0.015387921
112	0x3e859af0	0.2609477
113	0x3e66d5a9	0.22542442
114	0xbe98472b	-0.29741797
115	0xbd175b4f	-0.036952313
116	0xbe3dfca4	-0.18553406
117	0xbedd7d5a	-0.43259698
118	0xbf453e85	-0.7704852
119	0xbf564a84	-0.8370745
120	0x3f4cff52	0.8007709
121	0x3f43467e	0.7627944
122	0x3f00210d	0.5005043
123	0x3f468478	0.7754588
124	0x3e9a12d9	0.30092505
125	0xbe877463	-0.26455984
126	0xbdad3dc8	-0.084590495
127	0xbecc2e77	-0.398792
128	0xbe4e4a69	-0.20145573
129	0xbe533cf5	-0.20628722
130	0xbe194a55	-0.14969762
131	0xbe290b8b	-0.1650831
132	0xbe0e8da5	-0.1392122
133	0x3e2db6a8	0.16964209
134	0xbce181cf	-0.027527718
135	0x3dbeb41c	0.09311697
136	0xbe89898a	-0.26862746
137	0x3dfcbc42	0.12340595
138	0xbca10d6f	-0.019659726
139	0x3eb08dab	0.34483084
140	0xbcd8a928	-0.026447847
141	0x3d736832	0.05942554
142	0x3d5f2fdf	0.054489013
143	0x3e0f9790	0.1402266
144	0xbe2f1ad4	-0.17100078
145	0xbe640410	-0.22267175
146	0xbe597892	-0.212374
147	0xbe9f6f71	-0.3113971
148	0xbe7f1394	-0.24909812
149	0xbe017933	-0.1264389
150	0xbd95ec91	-0.07320512
151	0xbe123f14	-0.14281875
152	0x3d9d6ebf	0.07687139
153	0xbd932c4b	-0.071861826
154	0x3c49f4a8	0.012326397
155	0xbdd53557	-0.104105644
156	0x3b81328d	0.0039427937
157	0x3c75b5f2	0.014996992
158	0xba737af1	-0.0009288034
159	0x3d071ebf	0.032988306
160	0x3fa350a3	1.2758983
161	0x3ea53f39	0.32274798
162	0xbe8e79be	-0.27827257
163	0x3c90e588	0.017687574
164	0xbe5b120c	-0.21393603
165	0x3d9598e7	0.073045544
166	0x3d2eda19	0.042688463
167	0x3e20cab6	0.15702328
168	0x3e3b02ed	0.18262835
169	0x3e5f71f5	0.21820815
170	0x3f41df56	0.7573141
171	0x3f6c886b	0.9239566
172	0x3f649e4f	0.8930406
173	0x3e1e5c55	0.1546491
174	0xbd11bd35	-0.035580833
175	0xbe2e3231	-0.17011334
176	0x3e8059d7	0.25068542
177	0x3e0c8d28	0.13725722
178	0x3e9d77b0	0.30755377
179	0x3f35651b	0.708574
180	0x3f5f6aff	0.8727264
181	0x3f2cc117	0.6748213
182	0x3ee9962d	0.45622388
183	0x3f03c724	0.5147574
184	0x3ec09902	0.37616736
185	0x3e7f003d	0.24902435
186	0x3e2b3afb	0.16721718
187	0x3e273b0e	0.16331121
188	0xbdc0a990	-0.094073415
189	0xbe1d723d	-0.1537561
190	0xbe8ab561	-0.27091506
191	0xbf1be838	-0.6090121
192	0xbe890d3b	-0.26767907
193	0xbe0264b1	-0.12733723
194	0xbeddd25c	-0.43324554
195	0xbf1b27b1	-0.6060744
196	0xbe7d67a1	-0.24746563
197	0xbeb939b3	-0.36176834
198	0xbf1af2d3	-0.6052677
199	0xbf1ee690	-0.6207056
200	0x3ef41ac3	0.47676668
201	0x3ef9df5d	0.48803225
202	0x3ecf858e	0.40531582
203	0x3f14c524	0.5811331
204	0x3e721719	0.23641624
205	0x3c107786	0.008817559
206	0xbd1eba26	-0.038751744
207	0xbd61d9e3	-0.055139434
208	0xbd00cdc0	-0.03144622
209	0xbe246323	-0.16053443
210	0xbd2146c4	-0.039374128
211	0xbeee45e8	-0.4653771
212	0x3cace9c1	0.021107556
213	0xbe5eca92	-0.21756962
214	0xbe9463a4	-0.2898227
215	0xbe85335b	-0.26015744
216	0xbe8639da	-0.26216012
217	0x3e5f7dd5	0.21825345
218	0xbea59a3c	-0.32344234
219	0xbb3e30b0	-0.002902072
220	0xbf1b4728	-0.6065545
221	0xbe661168	-0.22467577
222	0xbf07e083	-0.5307695
223	0x3ec77633	0.38957366
224	0x3f3f7093	0.7478115
225	0x3f171ebb	0.59031266
226	0x3eebe736	0.46074837
227	0x3f420721	0.7579213
228	0x3faf44f9	1.3692924
229	0x3f9f85d9	1.2462722
230	0xbf1d1f2e	-0.613757
231	0xbf86deca	-1.053674
232	0xbb8d452a	-0.0043112235
233	0xbeed2a96	-0.46321553
234	0x3e06fe03	0.13182835
235	0x3ee6a04f	0.4504418
236	0x3faba7ee	1.3410623
237	0x3fabe95e	1.3430593
238	0x3f426dd8	0.7594886
239	0x3fd1f34d	1.6402375
240	0xbe0d3fb1	-0.13793828
241	0x3e501391	0.20319964
242	0xbe2a6454	-0.16639835
243	0x3bfb1e3c	0.0076635163
244	0x3ea25e58	0.31712604
245	0x3f0fa46b	0.56110257
246	0x3f2a8343	0.6660654
247	0x3fa45ca7	1.2840775
248	0x3fa0cff1	1.2563459
249	0x3f5a9f44	0.8539927
250	0x3fa32254	1.2744851
251	0x3f922bfc	1.1419673
252	0x3fd0a2d2	1.6299689
253	0x3f2a0588	0.6641469
254	0xbec90e90	-0.39268923
255	0xbd5928b0	-0.05301732

lstm.weight_hh_l0 f4 [400, 100]
0	0xbdb61d48	-0.08892304
1	0x3dbb6d8f	0.09151756
2	0xbd1d16ba	-0.038351752
3	0xbd489dca	-0.048978604
4	0x3d096c52	0.033550568
5	0x3c9f04ac	0.019411407
6	0x3d819c85	0.06328682
7	0xbb729fa0	-0.0037021413
8	0xbd14d650	-0.036337197
9	0x3d153fce	0.036437802
10	0xbda7b5f5	-0.081890024
11	0xbcb1becc	-0.021697424
12	0x3ca08db8	0.019598827
13	0xbd9a0f23	-0.07522418
14	0xbd6364cd	-0.055516053
15	0xbda11e8e	-0.07867156
16	0xbcacf994	-0.021115102
17	0x3dca03db	0.098640166
18	0x3d1b8712	0.03797061
19	0xbd315a3d	-0.04329895
20	0x3d4fc892	0.050728388
21	0x3d6c7092	0.057724543
22	0x3daa0141	0.083010204
23	0x3d533f0e	0.051573806
24	0x3daa9283	0.08328726
25	0x3cc8aa68	0.024495319
26	0x3d23c81e	0.03998577
27	0x3cd53d7c	0.026030295
28	0x3cb16b20	0.021657526
29	0xbd8c2385	-0.06842712
30	0xbd93f89d	-0.072251536
31	0x3d01bcb2	0.031674094
32	0xbda27ab6	-0.079335615
33	0xbc8dd8e0	-0.017315328
34	0x3be87850	0.0070944205
35	0x3d8168f1	0.06318844
36	0xbd842a40	-0.06453371
37	0xbd34d6a7	-0.04415002
38	0xbca2e4ec	-0.01988455
39	0xbd7a109d	-0.061051
40	0xbabeaec0	-0.0014547929
41	0x3dacb603	0.084331535
42	0xbd32b9dd	-0.043634284
43	0x3d2c226a	0.042025007
44	0x3c821268	0.015877917
45	0xbcd7124c	-0.026253842
46	0xbc6d8030	-0.014495894
47	0xbc465168	-0.01210437
48	0x3dbd15ff	0.09232711
49	0x3c15d028	0.009143867
50	0xbd06bbac	-0.03289382
51	0x3d097cba	0.033566214
52	0xbdca7105	-0.09884838
53	0xba10be80	-0.0005521551
54	0xbd14a3dc	-0.03628908
55	0xbbe738a0	-0.007056311
56	0xbdb31783	-0.08744719
57	0xbdb55705	-0.08854488
58	0x3c0ebe58	0.008712374
59	0x3d39ac4e	0.04533034
60	0xbd81bc4d	-0.06334744
61	0xbdac727b	-0.08420273
62	0xbd3f9210	-0.046770155
63	0xbc005228	-0.007832088
64	0x3db19e2b	0.08672746
65	0xbdbbb09f	-0.09164547
66	0xbcb46a60	-0.02202338
67	0x3d519cb6	0.05117484
68	0x3d76732a	0.060168423
69	0x3db9d31b	0.09073468
70	0x3dcc2a2b	0.099689804
71	0xbc1ddf18	-0.009635709
72	0xbd6bd403	-0.057575237
73	0xbd38c42a	-0.04510895
74	0xbbc607e0	-0.0060434192
75	0x3cb75ab8	0.022382125
76	0xbd656497	-0.056004133
77	0x3d90a775	0.0706319
78	0xbd50c683	-0.050970566
79	0x3d889eb1	0.06670893
80	0x3d44f8ca	0.048088826
81	0xbd9e20ad	-0.07721076
82	0x3db2911b	0.08719083
83	0xbdcb15f5	-0.09916297
84	0x3d2bb572	0.041921087
85	0x3c8daa38	0.01729308
86	0x3dc2c451	0.09510101
87	0x3b1673a0	0.0022957101
88	0x3da01909	0.07817275
89	0xbc441d90	-0.011969939
90	0xb8c86000	-9.5546246e-05
91	0x3d644bd6	0.055736385
92	0x3d8723c9	0.06598622
93	0xbd706e7a	-0.05869911
94	0xbd6b8c63	-0.05750693
95	0xbd3a70d7	-0.04551777
96	0x3dc5b06f	0.09652793
97	0xbd949c4a	-0.07256372
98	0x3cc84f94	0.024452008
99	0xbd2a613d	-0.04159664
100	0xbd30c28a	-0.043154277
101	0xbd11e3ac	-0.035617515
102	0x39b4a200	0.00034452975
103	0xbdb2d1a5	-0.08731393
104	0x3d89ad35	0.0672249
105	0xbd35e94a	-0.044411935
106	0x3d99fe5b	0.075192176
107	0xbd37457a	-0.044743992
108	0x3d6855b2	0.05672235
109	0x3dc619a9	0.09672863
110	0xbd480e9a	-0.04884205
111	0xbd5e12fd	-0.054217327
112	0xbdc3fd0b	-0.095697485
113	0x3c34f8e8	0.011045672
114	0xbdb414b2	-0.0879301
115	0x3d88f3fb	0.066871606
116	0xbd8611ad	-0.0654634
117	0x3da9710b	0.08273514
118	0xbdc9fd5b	-0.09862777
119	0xbda97a03	-0.08275225
120	0xbc6916d0	-0.01422663
121	0x3c665168	0.014057495
122	0x3dc33663	0.09531858
123	0xbd6c6c3a	-0.0577204
124	0xbd5d8610	-0.05408293
125	0x3d9d9cf9	0.07695956
126	0xbd400d73	-0.046887826
127	0xbd6598b0	-0.056053817
128	0x3da97da5	0.08275918
129	0x3d5cd91e	0.053917997
130	0xbdb2e408	-0.087349
131	0xbc34f8f0	-0.011045679
132	0xbd9504b6	-0.07276289
133	0x3d635596	0.055501543
134	0xbdc9c57b	-0.098521195
135	0xbdc5c912	-0.09657492
136	0x3d507fb6	0.050903045
137	0xbb5eacc0	-0.0033977479
138	0xbca01374	-0.019540526
139	0xbd832e1e	-0.064052805
140	0x3d838829	0.06422455
141	0x3c66da28	0.014090098
142	0x3db19c59	0.08672399
143	0x3cd3c7c4	0.025852092
144	0x3d1f22e6	0.03885164
145	0xbd17b2dc	-0.037035808
146	0x3dc25407	0.09488683
147	0xbd96dd83	-0.07366469
148	0xbc6794a8	-0.0141345635
149	0x3d1c860e	0.038213782
150	0xbc20b4d0	-0.009808734
151	0xbca7b960	-0.020474136
152	0xbdc9d3c8	-0.09854847
153	0xbd491987	-0.04909661
154	0xbca7d00c	-0.020484947
155	0x3db9ec9d	0.090783335
156	0xbd5ca860	-0.053871512
157	0xbd85d7e4	-0.065353185
158	0xbd7c4227	-0.061586525
159	0xbd932b55	-0.07185999
160	0xbd345297	-0.044024076
161	0xbd4db617	-0.050222483
162	0x3d682f82	0.056685932
163	0x3d629032	0.055313297
164	0x3d9fa6b1	0.07795466
165	0x3d55dd22	0.05221284
166	0x3d8265cd	0.06367073
167	0x3cff3234	0.031151868
168	0x3d4d0fe2	0.050063975
169	0xbd2fff17	-0.042967882
170	0xbd3da913	-0.04630382
171	0xbbc29780	-0.0059384704
172	0xbd8f495e	-0.069964156
173	0x3d5b8052	0.053589173
174	0xbd888550	-0.06666052
175	0x3d108982	0.035287388
176	0x3da7437b	0.08167168
177	0xbd748e5d	-0.05970608
178	0xbcd34e2c	-0.025794111
179	0xbdb982bb	-0.09058138
180	0x3d968c6f	0.07351004
181	0xbc95822c	-0.018250547
182	0xbdb88dff	-0.090114586
183	0xbdba68cb	-0.09102019
184	0xbb434600	-0.0029796362
185	0x3d98644f	0.07441007
186	0x3db24027	0.08703642
187	0x3d27c6d2	0.040961094
188	0xbd8be74d	-0.068312265
189	0x3dc10759	0.094252296
190	0xbd06ffc6	-0.03295877
191	0xbc93ec58	-0.018057033
192	0xbd1dda0a	-0.038538016
193	0x3cdd15dc	0.026987962
194	0xbc631eb0	-0.013862297
195	0x3d0b24c2	0.0339706
196	0x3d16f526	0.036854886
197	0xbbc81cb0	-0.0061069354
198	0xbd7bee07	-0.061506297
199	0x3b482100	0.0030537248
200	0xbd9a5723	-0.07536151
201	0x3d179f06	0.03701689
202	0xbc87f388	-0.016595617
203	0xbc8e98a0	-0.017406762
204	0x3c898174	0.01678536
205	0xbce843a0	-0.028352559
206	0xbd28f5ca	-0.041250028
207	0xbdb16ea7	-0.086636834
208	0xbd2a96c0	-0.041647673
209	0x3b50af60	0.0031842813
210	0xbd5da397	-0.05411109
211	0x3d2bd32e	0.041949444
212	0x3ce2f66c	0.027705394
213	0x3c12b1d8	0.008953534
214	0xbd973d62	-0.07384755
215	0xbda6dd60	-0.08147693
216	0x3c9c5688	0.01908423
217	0x3d8af9c7	0.067859225
218	0x3cf79e04	0.030226715
219	0x3c312480	0.010811925
220	0x3ceed824	0.029155798
221	0x3cfe2744	0.031024583
222	0x3ccfb384	0.025354154
223	0xbc0618c0	-0.008184612
224	0xbd59de8a	-0.053190745
225	0x3d746b9a	0.05967293
226	0x3dac4519	0.08411617
227	0xbb2a2800	-0.0025963783
228	0xbdaa8120	-0.0832541
229	0xbbcee330	-0.006313704
230	0xbd31d29d	-0.043413747
231	0x3a156c00	0.0005699992
232	0xbdc25b38	-0.09490055
233	0x3d49ba52	0.049249955
234	0xbc1e73e8	-0.009671189
235	0x3d8ccba7	0.06874781
236	0x3c1a69c0	0.009424627
237	0xbbb21f00	-0.0054358244
238	0x3dc73471	0.09726799
239	0x3d0b9386	0.034076236
240	0x3d5eae66	0.054365538
241	0x3d01037e	0.03149747
242	0x3cbe4088	0.02322413
243	0xbb218c00	-0.0024650097
244	0xbd4afccd	-0.049557496
245	0xbd6bc6cd	-0.057562638
246	0x3cea7124	0.028618403
247	0xbda8d9b3	-0.08244648
248	0x3d04e072	0.03244061
249	0x3c47f570	0.012204513
250	0xbcc36d14	-0.023855723
251	0x3db81a15	0.0898935
252	0x3db5ff39	0.088865705
253	0xbdae50e7	-0.08511525
254	0x3da27141	0.07931758
255	0xbbb10100	-0.0054017305

lstm.bias_ih_l0 f4 [400]
0	0xbe8d4194	-0.27589095
1	0xbf589c41	-0.84613425
2	0xbe97c7d6	-0.2964465
3	0x3e70ed87	0.2352811
4	0xbf311855	-0.6917775
5	0x3e5fd08e	0.21856901
6	0xbf399c3c	-0.7250402
7	0xbf9ef188	-1.241746
8	0x3e5e8d70	0.21733642
9	0xbe9b9393	-0.30386028
10	0xbe51bada	-0.20481434
11	0xbf03f723	-0.51548976
12	0x3d97e329	0.07416374
13	0xbee48f75	-0.446407
14	0xbf3b7702	-0.73228467
15	0xbc9f461f	-0.019442616
16	0xbe88f417	-0.26748726
17	0xbf56ad8e	-0.83858573
18	0xbf06f410	-0.5271616
19	0xbe887866	-0.26654357
20	0xbea0001d	-0.31250086
21	0xbf8760cc	-1.0576415
22	0xbe56022c	-0.20899266
23	0xbe92c5fd	-0.28666678
24	0xbe83d367	-0.25747225
25	0x3f01d17a	0.5071026
26	0xbe01ce83	-0.12676434
27	0xbee129c5	-0.4397718
28	0xbc71177a	-0.01471507
29	0xbf7838de	-0.9696177
30	0x3eea99cb	0.4582046
31	0xbf4d50e3	-0.8020155
32	0xbecdfa47	-0.4023001
33	0xbed09987	-0.40742132
34	0x3ecf34a3	0.40469846
35	0x3eb207e9	0.3477166
36	0x3d3ba5ca	0.045812406
37	0xbe6fa06a	-0.23401037
38	0xbeccb886	-0.3998453
39	0xbea142da	-0.31496316
40	0x3e5a40e5	0.21313818
41	0x3e815c50	0.2526574
42	0xbf15610b	-0.583512
43	0x3d9c8991	0.07643426
44	0xbeaf1e73	-0.34202918
45	0x3d331449	0.043720517
46	0xbf93ec26	-1.1556442
47	0xbe5e1378	-0.21687114
48	0xbec4f053	-0.38464603
49	0xbf11ab13	-0.56901664
50	0xbe6262a5	-0.22107942
51	0xbf4e379f	-0.8055362
52	0x3f0cb995	0.54970676
53	0xbfa0527d	-1.2525173
54	0xbe4376a2	-0.19088224
55	0x3e5b797c	0.21433061
56	0xbef49de1	-0.47776702
57	0xbecbbfa7	-0.39794657
58	0xbe893830	-0.2680068
59	0xbf5c2bc6	-0.8600429
60	0x3d21921b	0.039445978
61	0x3d109f0a	0.03530792
62	0xbfc1d6b6	-1.514365
63	0xbe46ebd5	-0.194259
64	0xbd3c9a4f	-0.046045598
65	0xbdb9a757	-0.09065121
66	0xbe40793f	-0.18796252
67	0xbeeadcd0	-0.45871592
68	0xbeaa9f21	-0.3332453
69	0xbebbbac7	-0.36665937
70	0x3c91fcad	0.01782068
71	0xbe959da0	-0.2922182
72	0xbd5e5129	-0.05427662
73	0xbf9b9168	-1.215375
74	0xbdc5de77	-0.096615724
75	0xbdd666ca	-0.10468824
76	0xbf807fbd	-1.0038983
77	0x3db2a575	0.08722965
78	0x3eba9c69	0.36447456
79	0xbe19cf24	-0.15020424
80	0xbe581fb6	-0.21105847
81	0x3e272508	0.1632272
82	0xbe5f586f	-0.21811078
83	0xbfa25fbc	-1.2685466
84	0xbe2ca5a5	-0.16860063
85	0xbf16642d	-0.58746606
86	0x3eefc5e9	0.4683068
87	0x3f03f709	0.5154882
88	0xbed44b52	-0.41463715
89	0xbbcd6b3a	-0.006268886
90	0x3cf4ab7a	0.029866923
91	0xbfb955e1	-1.4479333
92	0xbe5e6946	-0.21719846
93	0x3e04ab19	0.12955894
94	0xbe099ef0	-0.13439536
95	0xbdbaead3	-0.091268204
96	0xbefed9b6	-0.49775475
97	0x3d994d5f	0.074854605
98	0x3daadddf	0.083431
99	0xbf9042f8	-1.1270437
100	0x3d977ccf	0.07396852
101	0x3dcbbe03	0.09948351
102	0xbd88fae0	-0.066884756
103	0xbdb98bb3	-0.09059849
104	0x3d909635	0.070599
105	0x3c048ff0	0.008090958
106	0x3cf60ac4	0.03003443
107	0x3dac0c33	0.08400764
108	0x3d6ec232	0.058290668
109	0x3dc9f0c9	0.09860379
110	0xbdcb0abf	-0.09914159
111	0xbdc80eba	-0.09768434
112	0x3ce82d94	0.028342046
113	0x3da9cf35	0.08291475
114	0xbd998523	-0.07496097
115	0xbd5c5583	-0.053792488
116	0xbce559a0	-0.027996838
117	0x3d833431	0.06406439
118	0xbd015a0c	-0.031580016
119	0x3db5dbc1	0.08879805
120	0xbc1b8370	-0.009491786
121	0x3c9b5cb4	0.018965103
122	0x3d2d41d2	0.0422991
123	0xbc145040	-0.009052336
124	0xbcea302c	-0.028587423
125	0xbd2c6a53	-0.042093586
126	0x3c913140	0.01772368
127	0xbdae26e0	-0.085035086
128	0xbc8ecc0c	-0.017431282
129	0x3dc56851	0.096390374
130	0xbd9d9ff3	-0.076965235
131	0xbc4177e8	-0.011808373
132	0x3d1677de	0.036735408
133	0x3d9bf095	0.07614247
134	0xbd2e94e7	-0.042622473
135	0xbd52b93d	-0.05144619
136	0xbd9f767e	-0.077862725
137	0x3dbd25e3	0.09235742
138	0xbccfede8	-0.025381997
139	0xbd766553	-0.060155224
140	0x3d005f3e	0.03134083
141	0xbb872750	-0.0041245595
142	0xbd9eb0f8	-0.07748598
143	0xbd21bf7a	-0.039489247
144	0xbd67fabd	-0.056635607
145	0x3dae9f55	0.08526484
146	0xbd6fddb0	-0.058561027
147	0x3d805fb9	0.06268258
148	0xbd7b6ad0	-0.06138116
149	0x3ca2818c	0.019837163
150	0x3dc1cd89	0.09463031
151	0xbdc78b68	-0.097433865
152	0xbdc05642	-0.09391452
153	0xbd3b2db0	-0.045697868
154	0x3d09576a	0.03353063
155	0xbcdf68b4	-0.027271606
156	0xba9d4a00	-0.0012000203
157	0x3d5abb42	0.05340124
158	0x3d9f6507	0.07782941
159	0xbbd64530	-0.0065390095
160	0xbdc1c15a	-0.09460707
161	0xbd9556e6	-0.07291965
162	0xbcb28fec	-0.021797143
163	0x3dc52f27	0.09628134
164	0xbdbb3baa	-0.091422394
165	0x3dbaa747	0.09113937
166	0xbd8d3505	-0.06894878
167	0xbd8f2cc3	-0.069909595
168	0x3dc519e9	0.096240826
169	0xbd69f84a	-0.057121553
170	0xbd8e0c62	-0.069359556
171	0xbd909d35	-0.07061235
172	0x3d387b52	0.045039482
173	0x3cbcb4cc	0.02303543
174	0x3dae2899	0.08503837
175	0x3bf16260	0.0073664635
176	0x3d329862	0.043602355
177	0xbdb1ef5b	-0.086882316
178	0x3d3a1fd6	0.045440517
179	0xbc445218	-0.011982463
180	0xbda7103b	-0.081573926
181	0xbdbe9b25	-0.09306935
182	0xbc48d5f0	-0.012258038
183	0xbd5fb197	-0.054612722
184	0xbc96bd88	-0.018400922
185	0xbd99d5c5	-0.075114764
186	0x3d885f39	0.06658787
187	0x3c89bad4	0.01681272
188	0x3d669852	0.056297608
189	0x3d051bf2	0.032497354
190	0x3db486e1	0.088147886
191	0x3b9dc5d0	0.004814841
192	0x3d899db1	0.067195304
193	0x3daebb17	0.08531778
194	0x3d25d4ae	0.04048603
195	0xbbf144d0	-0.0073629394
196	0x3d9d7295	0.076878704
197	0xbd608bf7	-0.05482098
198	0xbd951c93	-0.07280841
199	0xbd8d8e68	-0.069119275
200	0x3d9c3321	0.076269396
201	0x3c1b2ea2	0.009471567
202	0x3ddcd5c2	0.107829586
203	0xbd9d8c1c	-0.07692739
204	0xbe0363b2	-0.12831
205	0xbd37b32f	-0.044848617
206	0x3dbe71e2	0.09299065
207	0xbd0da590	-0.03458172
208	0xbdf4a3b2	-0.11945285
209	0x3e2520c4	0.1612578
210	0x3e31be0b	0.17357652
211	0x3c8ffdb6	0.017577033
212	0xbdb149ec	-0.086566776
213	0xbe5a1fb5	-0.21301158
214	0xbe0630a3	-0.13104491
215	0x3d779adb	0.060450416
216	0xbe0ce9b9	-0.13761033
217	0x3eade80a	0.33966094
218	0xbca8ea8e	-0.020619657
219	0x3d3a0263	0.045412432
220	0xbdb6ffca	-0.08935507
221	0x3d264116	0.040589415
222	0x3d596bb5	0.053081233
223	0x3e6fb005	0.2340699
224	0x3e20c9c8	0.15701973
225	0x3dfedea0	0.12444806
226	0xbe84940f	-0.2589421
227	0xbd916974	-0.07100192
228	0x3ca2c31d	0.019868428
229	0xbe4616f5	-0.19344695
230	0xbca0cebb	-0.019629827
231	0xbe0f51b5	-0.13996013
232	0x3d022c07	0.03178027
233	0x3db36012	0.08758558
234	0xbd319b11	-0.043360773
235	0xbe5baa11	-0.21451594
236	0xbe2677e7	-0.16256677
237	0x3e2930ae	0.16522476
238	0xbd76bb6e	-0.06023734
239	0xbc6a0419	-0.0142832035
240	0x3aff7c27	0.0019491956
241	0xbd6595c2	-0.056051023
242	0xbe0b836f	-0.13624357
243	0x3d952d38	0.072840154
244	0x3e3f1a56	0.1866239
245	0x3dda6994	0.10664669
246	0xbd98061c	-0.0742304
247	0xbd1c1655	-0.038107235
248	0x3d62ca01	0.055368427
249	0xbd3a6f33	-0.045516204
250	0xbe555992	-0.2083495
251	0xbdd7972a	-0.10526879
252	0xbe066aff	-0.13126753
253	0x3cbac99c	0.022801213
254	0xbe6be5d6	-0.23036894
255	0x3dc09f52	0.09405388

lstm.bias_hh_l0 f4 [400]
0	0xbe9fa3e2	-0.3117972
1	0xbf377845	-0.7166789
2	0xbe6deabd	-0.23234077
3	0x3e3b0cf7	0.18266664
4	0xbf3e8a6b	-0.7442996
5	0x3d3ac377	0.045596566
6	0xbf394504	-0.72370934
7	0xbfa6b274	-1.302321
8	0x3dae3bb3	0.085074805
9	0xbec0f7e5	-0.3768913
10	0xbe40a5d8	-0.18813264
11	0xbf0dbdcf	-0.5536775
12	0x3d0bf248	0.034166604
13	0xbecb5a3f	-0.3971729
14	0xbf3ab48a	-0.7293173
15	0xbd33df20	-0.04391396
16	0xbe95a29b	-0.2922562
17	0xbf4bbcde	-0.79585063
18	0xbee31fd2	-0.44360214
19	0xbe994576	-0.29935807
20	0xbe8e11dd	-0.27748004
21	0xbf7f5187	-0.99733776
22	0xbe9e45d0	-0.30912638
23	0xbe844fe5	-0.25842205
24	0xbed414c0	-0.4142208
25	0x3f181bc1	0.5941735
26	0xbd33c934	-0.043893054
27	0xbedee7f5	-0.43536344
28	0x3cffd795	0.031230727
29	0xbf8616ad	-1.047567
30	0x3f180b94	0.59392667
31	0xbf276701	-0.65391546
32	0xbeb2642b	-0.34842047
33	0xbedc94b1	-0.43082193
34	0x3f0152d5	0.50517017
35	0x3e22c624	0.15895897
36	0x3d1123d6	0.035434566
37	0xbe206206	-0.15662393
38	0xbf04381f	-0.51648134
39	0xbeabd1be	-0.33558458
40	0x3df24284	0.11829093
41	0x3e1b530b	0.15168397
42	0xbf10d369	-0.56572586
43	0xbc929e7d	-0.017897839
44	0xbe9d45e1	-0.30717376
45	0x3da67d14	0.081293255
46	0xbfa070e8	-1.2534456
47	0xbe0ddc6c	-0.13853616
48	0xbee68eb5	-0.45030752
49	0xbf03d9d3	-0.5150425
50	0xbe05b33d	-0.13056655
51	0xbf4f6a07	-0.8102116
52	0x3f13d86a	0.57752097
53	0xbf95130b	-1.1646436
54	0xbeaee36b	-0.3415788
55	0x3d181348	0.037127763
56	0xbf08f06c	-0.53491855
57	0xbf178e21	-0.59201247
58	0xbe73b32a	-0.23798814
59	0xbf7610b2	-0.96119225
60	0xbd886688	-0.06660181
61	0x3d58c8e3	0.052925956
62	0xbfc5d920	-1.5456886
63	0xbe734d45	-0.23759945
64	0xbdb01dd0	-0.08599436
65	0xbde47fcb	-0.11157187
66	0xbe6cc861	-0.23123313
67	0xbf148929	-0.5802179
68	0xbeea9753	-0.45818576
69	0xbef92ecf	-0.48668525
70	0x3d9217e0	0.0713346
71	0xbeaf20ac	-0.34204614
72	0x3d88f1cc	0.06686744
73	0xbf98424e	-1.1895235
74	0xbe0cd470	-0.13752913
75	0xbe23f30d	-0.16010685
76	0xbf615920	-0.8802662
77	0x3de6f29f	0.11276745
78	0x3eca008f	0.3945355
79	0xbddb4b74	-0.10707751
80	0xbe73a670	-0.2379396
81	0x3e0c491e	0.13699767
82	0xbe872068	-0.26391912
83	0xbfac2544	-1.3448873
84	0xbd8a315b	-0.06747695
85	0xbf1e67b9	-0.6187702
86	0x3f0432a3	0.51639766
87	0x3f2becc5	0.67158157
88	0xbec493d2	-0.38394028
89	0xbda20259	-0.07910604
90	0x3dbc8fcf	0.09207117
91	0xbfbc4c78	-1.4710836
92	0xbe6ef294	-0.23334724
93	0x3d93d736	0.072187826
94	0xbe27d280	-0.16388893
95	0xbe85374e	-0.26018757
96	0xbf036651	-0.51328
97	0x3e7129ec	0.23551148
98	0x3dc6e98f	0.097125165
99	0xbf8c5fcd	-1.0966736
100	0xbd65a870	-0.056068838
101	0x3d8f0c33	0.06984749
102	0xbd034776	-0.032050572
103	0x3d5c75c2	0.05382324
104	0x3d1b68ae	0.037941627
105	0xbd51c72d	-0.05121534
106	0x3da07a9b	0.07835885
107	0xbd470f9d	-0.048598874
108	0xbd86191c	-0.06547758
109	0x3ca315b4	0.01990781
110	0xbdc04c73	-0.093895815
111	0xbd8866e2	-0.06660248
112	0x3ce161ac	0.027512394
113	0xbdc40bd8	-0.095725715
114	0xbd1b2b5a	-0.03788314
115	0xbd2cff83	-0.042235862
116	0xbda9904e	-0.08279477
117	0xbd25c2a7	-0.040468838
118	0x3d8e33d3	0.069434784
119	0xbcc747d4	-0.024326243
120	0xbc187158	-0.009304367
121	0x3cb3acc0	0.02193296
122	0xbdcb31ca	-0.09921606
123	0x3da62f73	0.08114519
124	0x3d98370d	0.07432375
125	0x3c42e250	0.011894777
126	0xbdaad880	-0.08342075
127	0x3dc0f2f9	0.09421343
128	0x3caa8ea0	0.020819962
129	0xbda105ca	-0.07862432
130	0x3db38f77	0.08767598
131	0xbc4b8b68	-0.012423374
132	0x3c888858	0.016666576
133	0x3d87c30d	0.06629
134	0xbd7e3a93	-0.06206758
135	0x3d7ab496	0.061207376
136	0x3d579aa2	0.052637704
137	0xbb8492e0	-0.004045829
138	0xbd440663	-0.047857653
139	0xbcce4ec0	-0.025184035
140	0xbcb48de8	-0.022040322
141	0xbd8f04d3	-0.06983342
142	0xbd9a192b	-0.07524332
143	0x3d813109	0.06308181
144	0xbbeb8ba0	-0.0071882755
145	0x3bf76550	0.007549919
146	0x3cff70b4	0.03118167
147	0xbcd17ee8	-0.025573209
148	0x3d4ff5d2	0.050771542
149	0x3da38cdd	0.07985852
150	0x3dcad371	0.099036105
151	0xbba3a430	-0.004993938
152	0x3d0f4552	0.03497822
153	0xbd1264a4	-0.03574051
154	0xbdb771a7	-0.08957224
155	0xbda54bb8	-0.08071083
156	0x3d901453	0.070351265
157	0x3d8972ad	0.06711326
158	0xbc93baa0	-0.018033326
159	0x3d959071	0.07302941
160	0x3d22fd92	0.039792605
161	0x3c1c0ee8	0.009525038
162	0x3dbacfb7	0.0912165
163	0x3d79af16	0.06095799
164	0xbcd690cc	-0.026192091
165	0x3d815061	0.06314159
166	0xbd63e52d	-0.05563848
167	0x3b6cee60	0.0036152825
168	0x3b0a1140	0.002106741
169	0x3dcc26a9	0.09968311
170	0x3d646fae	0.05577057
171	0x3cb4d7d8	0.022075579
172	0x3d438372	0.047732778
173	0x3c890794	0.016727246
174	0x3d4c2872	0.04984326
175	0xbd8c36ec	-0.06846413
176	0x3da1c02d	0.07897983
177	0x3cc531e0	0.024071634
178	0xbd0fa4d0	-0.035069287
179	0x3d9cb711	0.07652105
180	0x3c79d210	0.015247837
181	0xbd115060	-0.035477042
182	0x3cba008c	0.022705339
183	0xbc4a8a40	-0.012362063
184	0xbdb2b953	-0.08726754
185	0xbdbbcb67	-0.09169655
186	0x3d8b25b1	0.067942984
187	0xbce872c0	-0.02837503
188	0x3b442900	0.0029931664
189	0x3cc5fa60	0.02416724
190	0x3ca8aaa0	0.020589173
191	0xbd1db4c0	-0.038502455
192	0xbc85abcc	-0.01631727
193	0xbcf7ece8	-0.030264333
194	0x3d2a06ca	0.04151038
195	0x3caf8ec0	0.021430373
196	0x3c1f3050	0.009716108
197	0xbda65ab2	-0.081227675
198	0xbbf09e20	-0.0073430687
199	0x3cdd6d44	0.027029641
200	0x3e3f2f24	0.18670326
201	0xbe42035f	-0.18946598
202	0x3e7713e2	0.24128678
203	0xbe24603b	-0.16052334
204	0xbdd171a2	-0.10226752
205	0xbd6afaea	-0.057368197
206	0x3e49458c	0.19655436
207	0x3b441322	0.002991863
208	0xbe8165d7	-0.2527301
209	0x3e8e9141	0.27845195
210	0x3e2d4aa3	0.16923003
211	0x3db50193	0.08838191
212	0x3d047f39	0.03234789
213	0xbe04be17	-0.12963139
214	0xbdae6c0a	-0.085167006
215	0x3d14a7ea	0.036292948
216	0xbda98e03	-0.0827904
217	0x3e85f9c7	0.26167127
218	0xbd303cce	-0.043026738
219	0xbdbe18dd	-0.09282086
220	0xbe5259ac	-0.2054202
221	0x3d9c5a7b	0.07634445
222	0xbb876114	-0.0041314457
223	0x3e0e50bb	0.13897984
224	0x3e022b5f	0.12711857
225	0x3c5043e1	0.012711496
226	0xbec053b2	-0.37563854
227	0xbd94519f	-0.072421305
228	0xbde25265	-0.11050872
229	0xbe803c30	-0.2504592
230	0xbda8e2b4	-0.08246365
231	0xbe49df71	-0.19714142
232	0xbd9bef61	-0.07614017
233	0x3d1c6b5b	0.03818832
234	0xbe391abb	-0.18076603
235	0xbe7dd575	-0.24788459
236	0xbe48d22d	-0.19611426
237	0x3e618696	0.22023997
238	0xbd9d71e0	-0.076877356
239	0xbd689ed1	-0.056792084
240	0x3d34ada1	0.044110898
241	0x3cf7a25c	0.030228786
242	0xbdaab355	-0.08334986
243	0x3e3d5811	0.18490626
244	0x3e560bd8	0.20902956
245	0x3c2236f9	0.009900802
246	0xbe4e8c86	-0.20170793
247	0xbe0a57c5	-0.13510044
248	0x3dcc0d15	0.09963433
249	0xbd4321b1	-0.047639553
250	0xbe144c16	-0.1448215
251	0xbdbd47ae	-0.092421874
252	0xbde47e63	-0.11156919
253	0xbc846eb0	-0.016166061
254	0xbdd67ea3	-0.10473373
255	0x3d02e4d2	0.0319565

lstm.weight_ih_l1 f4 [400, 100]
0	0x3da80fce	0.082061395
1	0x3d800125	0.06250218
2	0xbe2c0dcc	-0.16802138
3	0x3e157e68	0.14599001
4	0xbc1ca90a	-0.009561786
5	0xbd90a317	-0.07062357
6	0xbe0a19cb	-0.13486402
7	0xbd4920ac	-0.049103424
8	0xbe8f8ff5	-0.28039518
9	0xbc2a974c	-0.010412049
10	0x3ddddba4	0.10832909
11	0xbc089e6f	-0.008338555
12	0xbdd6e071	-0.104920276
13	0x3d6c83e5	0.057742972
14	0xbd885b2d	-0.066580154
15	0x3d2fa370	0.042880476
16	0x3ce08a4b	0.027409693
17	0x3d87bc8a	0.06627758
18	0xbd2db27d	-0.042406548
19	0xbceeff57	-0.02917449
20	0xbd1d4611	-0.0383969
21	0xbc0f3fb2	-0.0087432135
22	0xbd53e02c	-0.05172746
23	0x3dea96fb	0.114545785
24	0xbdc38cfc	-0.09548375
25	0x3d9b7b0d	0.075918294
26	0xbe874430	-0.2641921
27	0x3e00b603	0.12569432
28	0xbeb5717d	-0.35438147
29	0x3d0b92ad	0.034075428
30	0xbe055a22	-0.13022664
31	0xbb8153d1	-0.0039467593
32	0xbe013d3c	-0.12621015
33	0xbd931b98	-0.071829975
34	0x3dc1a01c	0.094543666
35	0xbe9470de	-0.2899236
36	0xbd93c309	-0.072149344
37	0x3e4c8bc8	0.19975197
38	0x3d502a9f	0.050821897
39	0x3c97eb2f	0.018544761
40	0xbbda5720	-0.006663218
41	0x3cc7696f	0.024342267
42	0x3b33b1b7	0.0027419159
43	0xbd64cde1	-0.055860404
44	0x3df1b16f	0.11801421
45	0x3e03475c	0.1282019
46	0x3df89624	0.12138012
47	0xbd79c61b	-0.060979944
48	0x3d004e0d	0.031324435
49	0x3d413cab	0.047176998
50	0xbd96e301	-0.07367516
51	0xbd3aa57d	-0.04556798
52	0xbee5940a	-0.44839507
53	0x3c4e449f	0.012589603
54	0x3e7791a9	0.24176659
55	0x3e1731a6	0.14765033
56	0x3d5d5453	0.054035496
57	0xbdb8d3a3	-0.090247415
58	0xbbaf5823	-0.005351083
59	0xbd158ed0	-0.03651315
60	0xbc89ec51	-0.016836317
61	0xbc9e0df7	-0.019293768
62	0x3e8b0903	0.27155313
63	0x3cbd6cc2	0.023123149
64	0xbd8486eb	-0.06471046
65	0x3d8b75a3	0.06809547
66	0x3d36c1f8	0.044618577
67	0xbcd5624e	-0.026047852
68	0x3d8716ec	0.06596169
69	0xbe0bb1d6	-0.13642058
70	0x3dae2096	0.08502309
71	0xbd3bb864	-0.045830145
72	0x3e2d88f6	0.16946778
73	0xbcd88df3	-0.026434874
74	0xbc849fb1	-0.016189428
75	0xbd9c9f93	-0.07647624
76	0x3dbaaa12	0.091144696
77	0xbdfdd7a9	-0.123946495
78	0x3c4306f8	0.011903517
79	0xbe1e13ab	-0.1543719
80	0xbe05b782	-0.13058284
81	0x3d475f7c	0.048675045
82	0xbdab3df9	-0.0836143
83	0xbd30667b	-0.043066483
84	0xbd8855d6	-0.06656997
85	0x3e0c2dbf	0.13689326
86	0x3e155912	0.14584759
87	0xbe4e4e69	-0.20147099
88	0xbda8bd37	-0.08239215
89	0x3eb8a820	0.3606577
90	0xbe053b2d	-0.13010855
91	0x3dd04191	0.10168756
92	0x3d9c219e	0.076235995
93	0xbd948416	-0.07251756
94	0xbe806a65	-0.25081173
95	0xbd809351	-0.062780984
96	0x3e338852	0.17532471
97	0x39a16942	0.00030786736
98	0xbe86b150	-0.26307154
99	0xbdebf45d	-0.11521218
100	0x3dd31084	0.103058845
101	0x3adc50a6	0.0016808703
102	0x3d866ae5	0.06563357
103	0x3c36dbe9	0.011160829
104	0x3dc5e78f	0.09663307
105	0xbd8711f0	-0.06595218
106	0x3cc9dd4e	0.02464166
107	0xbd1ed309	-0.038775478
108	0xbed123b8	-0.40847564
109	0x3d608beb	0.054820936
110	0x3e4babaa	0.19889703
111	0x3cf28de3	0.029608672
112	0xbe149a61	-0.14512016
113	0x3d1c7e99	0.03820667
114	0x3c88f8f1	0.016720267
115	0x3cd1af24	0.025596209
116	0x3cc6eaa4	0.024281807
117	0x3dac91d5	0.08426253
118	0x3d0d6422	0.034519322
119	0xbd73e317	-0.05954274
120	0x3da024bd	0.07819507
121	0x39fc7845	0.00048154793
122	0xbdcb19e5	-0.09917048
123	0x3e75a897	0.23990093
124	0x3d3905ef	0.045171674
125	0x3be8e51b	0.0071073896
126	0xbe7237c6	-0.23654088
127	0x3ddcd461	0.107826956
128	0xbeab5523	-0.33463392
129	0xbe324966	-0.17410812
130	0xbdef6c41	-0.1169057
131	0x3da446f2	0.08021344
132	0xbe329966	-0.1744133
133	0xbcb468d8	-0.02202265
134	0xbd6a0048	-0.057129174
135	0xbe7071c3	-0.23480897
136	0x3d425cf5	0.047451932
137	0x3e6ede61	0.23327018
138	0xbd586d35	-0.052838523
139	0xbd2afbff	-0.04174423
140	0xbc8ef566	-0.017451
141	0xbde4db0f	-0.111745946
142	0xbe2bae47	-0.167657
143	0xbdf13370	-0.11777389
144	0xbcab7260	-0.020928562
145	0x3e4aacf9	0.19792546
146	0x3b9c69d1	0.0047733565
147	0xbdd52f26	-0.104093835
148	0x3bffb62e	0.0078037
149	0x3e406a80	0.18790627
150	0xbe25d981	-0.16196252
151	0xbcab5372	-0.020913813
152	0xbed9144b	-0.42398295
153	0x3c6561c4	0.01400036
154	0x3e2e27fe	0.17007443
155	0xbd39b135	-0.045335013
156	0x3c8e87e6	0.017398786
157	0xbcf2741f	-0.029596386
158	0x3c507d27	0.012725151
159	0x3dc4b1df	0.09604239
160	0xbc8eea90	-0.017445832
161	0x3d1ad2ec	0.037798807
162	0x3dd4397c	0.10362527
163	0xbc809fd1	-0.015701206
164	0x3d036e2a	0.032087483
165	0x3cbb20e8	0.02284284
166	0xbd2a8d88	-0.04163888
167	0xbbee2425	-0.0072674924
168	0x3b20c6df	0.00245326
169	0x3c8d9a24	0.017285414
170	0x3d9101ba	0.070804074
171	0x3c38970f	0.011266484
172	0x3e45bef5	0.19311126
173	0x3d05153a	0.032490946
174	0xbb416ec6	-0.002951549
175	0xbdccf294	-0.100072056
176	0xbd1a1b3f	-0.03762364
177	0xbe8426cf	-0.2581086
178	0x3ce04515	0.02737669
179	0xbd88b515	-0.06675164
180	0x3d06e527	0.03293338
181	0x3e7d62c8	0.24744713
182	0xbe2fb348	-0.17158234
183	0xbb527558	-0.00321134
184	0x3d9c34ca	0.07627256
185	0xbd0ac1ad	-0.03387611
186	0x3d34fc79	0.04418609
187	0xbcfc18d4	-0.030773558
188	0xbdce2217	-0.10065096
189	0x3ee0e5e7	0.43925402
190	0xbe139e91	-0.14415957
191	0x3d7734b6	0.060353003
192	0xbdae2024	-0.08502224
193	0xbe029b78	-0.12754619
194	0xbe52c418	-0.20582616
195	0x3d716f43	0.058943998
196	0x3dea0e91	0.114285596
197	0x3d9feacd	0.078084566
198	0xbe8113d6	-0.25210446
199	0x3d39bd5e	0.04534661
200	0x3d06fd54	0.032956436
201	0xbdbd18e6	-0.092332646
202	0xbd83ada1	-0.064296015
203	0x3e1df4c4	0.15425402
204	0x3e03d98f	0.12875961
205	0xbc0b45ff	-0.008500575
206	0xbd996f79	-0.07491965
207	0xba5a56f0	-0.0008328995
208	0xbe752ce1	-0.23942901
209	0x3d9b4455	0.07581393
210	0x3e21f1e0	0.15814924
211	0xbd660f6a	-0.056167044
212	0xbde16b00	-0.11006737
213	0xbc09e8c6	-0.008417314
214	0x3d06a038	0.03286764
215	0x3c7d6f8e	0.015468491
216	0xbc84074a	-0.016116757
217	0x3e24d6c0	0.16097546
218	0xbd5521e6	-0.05203428
219	0x3dd431ea	0.10361083
220	0x3c8116cf	0.015757946
221	0x3ddd7fdf	0.10815405
222	0x3cc86546	0.024462353
223	0x3e9422ca	0.28932792
224	0x3be2ffc6	0.006927463
225	0x3e04b68d	0.12960263
226	0xbe637515	-0.22212632
227	0x3d94bb9b	0.072623454
228	0xbebfb17a	-0.3744009
229	0x3d4e1c5d	0.050320018
230	0xbdaf7c3d	-0.085686184
231	0xbddb00b9	-0.10693497
232	0xbda76c05	-0.081749
233	0xbd3a33ca	-0.045459546
234	0xbe0a5c8f	-0.13511871
235	0xbdf81b9a	-0.121146396
236	0xbe38b37e	-0.18037221
237	0x3e6d476e	0.2317178
238	0x3da0b233	0.07846489
239	0xbdb26937	-0.087114744
240	0xbd3b3bda	-0.045711376
241	0xbac843a8	-0.0015278952
242	0xbd0816bf	-0.033224817
243	0xbd9f65bb	-0.077830754
244	0xbdd78eef	-0.10525309
245	0x3db6daeb	0.08928474
246	0x3da7c7bf	0.081923954
247	0xbda46b7c	-0.080283135
248	0x3cf01b48	0.029309884
249	0x3e22f61d	0.15914197
250	0xbe1136a5	-0.14181001
251	0x3caaaec2	0.020835284
252	0xbeea47fa	-0.4575804
253	0xbdbebc58	-0.093132675
254	0x3d416977	0.04721972
255	0x3dd9657a	0.10615058

lstm.weight_hh_l1 f4 [400, 100]
0	0x3d7fdc62	0.062466033
1	0xbc919c0c	-0.017774604
2	0x3d1aca2a	0.037790455
3	0xbd1d0100	-0.03833103
4	0xbcc6ee20	-0.024283469
5	0x3d119e42	0.035551317
6	0xbd5de3e0	-0.054172397
7	0x3d7e7c3e	0.062130205
8	0xbd4f9120	-0.05067551
9	0xbdcabf13	-0.09899726
10	0xbdc50d88	-0.096217215
11	0x3c310fa8	0.010806955
12	0x3d132ffe	0.03593444
13	0xbdb5a5a5	-0.08869485
14	0x3cbdca94	0.023167886
15	0x3d0ff4a2	0.03514541
16	0xbd93a256	-0.072086975
17	0xbd8de2cd	-0.069280244
18	0x3d973069	0.073822804
19	0x3da367b1	0.07978762
20	0xbd87cfde	-0.066314444
21	0xbdcca312	-0.09992041
22	0x3cdb3344	0.026757844
23	0xbb3d9f40	-0.0028934032
24	0x3cce1fd4	0.025161661
25	0xbda5e08d	-0.0809947
26	0x3d99b0c1	0.07504416
27	0x3dbe6c37	0.09297984
28	0xbc91afa0	-0.01778394
29	0x3c950b38	0.018193826
30	0xbd902755	-0.07038752
31	0x3d1b5f7e	0.037932865
32	0x3d23cfce	0.0399931
33	0xbd967fb6	-0.07348578
34	0x3dcb5c27	0.09929686
35	0xbcb1052c	-0.021608911
36	0x3db89b2d	0.090139724
37	0x3da823a3	0.08209922
38	0x3da43837	0.08018535
39	0xbd1c8637	-0.038213935
40	0x3cd29b44	0.025708802
41	0x3dc77dbd	0.097407795
42	0xbc5295e8	-0.012853123
43	0x3d844b7f	0.06459712
44	0x3d415fda	0.04721055
45	0x3d87c65f	0.06629633
46	0xbc1ae980	-0.009455085
47	0x3dbc9239	0.09207577
48	0xbdb33e82	-0.08752157
49	0x3c8395cc	0.01606264
50	0x3dcafc85	0.099114455
51	0x3d86ec71	0.06588066
52	0x3db37d75	0.087641634
53	0xbd1c46a7	-0.038153317
54	0xbd95e132	-0.07318343
55	0x3d338122	0.043824323
56	0xbd7f6ed3	-0.06236155
57	0x3d9d2aa9	0.076741524
58	0xb9038600	-0.00012543052
59	0xbc9b6c6c	-0.018972598
60	0x3d94f291	0.07272828
61	0x3d5d9c2a	0.054104008
62	0x3d62a976	0.05533739
63	0xbdb9a94f	-0.09065496
64	0xbd80938d	-0.06278143
65	0xbbb10330	-0.0054019913
66	0x3dbc0b79	0.09181876
67	0x3d740c32	0.059581943
68	0xbd536a6d	-0.051615167
69	0xbd92dc52	-0.07170929
70	0xbcb7a718	-0.022418544
71	0x3ca8cec8	0.020606413
72	0x3d6041d2	0.05475027
73	0xbd27868a	-0.04089979
74	0xbdb0d48d	-0.08634291
75	0xbd1927e0	-0.037391543
76	0xbd886600	-0.0666008
77	0x3dc1b543	0.09458401
78	0xbd825938	-0.063646734
79	0xbdb4c067	-0.0882576
80	0xbcf59bd8	-0.029981539
81	0xbd37b9bd	-0.04485487
82	0x3d0b0fc2	0.033950575
83	0x3ca28e28	0.019843176
84	0x3d630a9a	0.055430032
85	0x3db5fca3	0.08886077
86	0xbd03e23a	-0.03219817
87	0xbd68f8aa	-0.05687777
88	0xbdc4af62	-0.09603764
89	0xbc13a4e8	-0.009011485
90	0x3d1cc20a	0.038270988
91	0x3d0eb5a2	0.034841187
92	0x3d860fe5	0.065460004
93	0xbd41a273	-0.047274064
94	0x3d3e0a22	0.046396382
95	0x3d367132	0.044541545
96	0x3d24490a	0.040108718
97	0x3bafcd30	0.0053650364
98	0x3d397d92	0.04528577
99	0xb90b4600	-0.0001328215
100	0x3c26b318	0.010174535
101	0x3d16375e	0.036673896
102	0xbd5e4213	-0.054262232
103	0xbcab17f4	-0.020885445
104	0xbd432803	-0.04764558
105	0x3d1d1dd2	0.038358517
106	0xbd9126dd	-0.07087491
107	0x3d963179	0.07333655
108	0xbd057190	-0.032579005
109	0x3dad7671	0.084698565
110	0x3d86225b	0.065495215
111	0x3dbe17bb	0.0928187
112	0x3d9c25f9	0.0762443
113	0x3d8e1b8f	0.0693885
114	0xbca2a828	-0.019855574
115	0x3d27566e	0.04085391
116	0x3db3f78f	0.087874524
117	0x3dc112fb	0.09427448
118	0x3dc18631	0.09449423
119	0x3d95e063	0.07318189
120	0x3da8fb1d	0.08251021
121	0xbd502517	-0.05081662
122	0xbdc41238	-0.095737875
123	0xbd5d2903	-0.05399419
124	0x3c423a10	0.0118546635
125	0x3d99fd31	0.075189956
126	0x3d29c2c2	0.0414455
127	0x3d7fb26a	0.06242601
128	0xbdb6ff30	-0.08935392
129	0x3d954b77	0.072897844
130	0x3d2913d2	0.041278668
131	0x3d5d375e	0.05400788
132	0x3cf449a4	0.02982027
133	0xbc313fd0	-0.010818437
134	0x3dae4c15	0.08510605
135	0xbd99dd02	-0.07512857
136	0x3d33c5ee	0.043889932
137	0xbba0b080	-0.004903853
138	0x3cff9504	0.031198986
139	0xbd05ec26	-0.03269591
140	0x3d22e95e	0.039773338
141	0xbdb0ed53	-0.08639016
142	0xbd61e65d	-0.055151332
143	0x3d3bf6e6	0.045889758
144	0x3dbf3163	0.09335592
145	0xbbbc93a0	-0.005754903
146	0x3d5c03f2	0.0537147
147	0x3d50b432	0.050953098
148	0x3d937f05	0.072019614
149	0x3d54802e	0.051880054
150	0xbd118066	-0.03552284
151	0x3da0c0f7	0.07849305
152	0x3d359482	0.04433108
153	0x3d049452	0.03236801
154	0x3d3265ca	0.043554105
155	0x3cd3c944	0.025852807
156	0xbd67957a	-0.056539036
157	0xbc114c18	-0.00886824
158	0xbd137f8c	-0.03601031
159	0x3cc157e8	0.023601487
160	0x3d8d5eb5	0.069028296
161	0xbd7d4cc7	-0.0618408
162	0x3dc13793	0.09434428
163	0xbcd66340	-0.026170373
164	0x3dbb1779	0.091353364
165	0xbd018e60	-0.03162992
166	0x3db6efb9	0.08932442
167	0xbd6966c7	-0.05698278
168	0xbc8aecd8	-0.016958639
169	0x3d9bafb1	0.0760187
170	0xbc8c97b8	-0.017162189
171	0xbdbeceea	-0.093168095
172	0x3db80f19	0.08987255
173	0x3dad4b0b	0.08461579
174	0x3c62d4f0	0.013844714
175	0x3ce61d44	0.028090127
176	0x3c4dfbe8	0.012572266
177	0xbd26b0ad	-0.040695835
178	0xbd026cf0	-0.031842172
179	0x3dba4219	0.090946384
180	0x3d66fc02	0.056392677
181	0xbc3dd718	-0.011586927
182	0x3d5ca87a	0.05387161
183	0xbda75722	-0.08170916
184	0x3cce2f14	0.025168933
185	0xbdb1eafd	-0.086873986
186	0x3dbc8ad3	0.09206166
187	0xbdaad1aa	-0.083407715
188	0x3d7f7e22	0.06237615
189	0x3c89b694	0.016810693
190	0x3dc2c015	0.09509293
191	0x3d8238ab	0.06358465
192	0xbdba2fe0	-0.09091163
193	0x3dbdcfef	0.09268176
194	0xbbba01a0	-0.0056764632
195	0xbcce0f38	-0.025153741
196	0xbd8c33de	-0.068458304
197	0x3db17b6d	0.0866612
198	0x3db1b591	0.08677209
199	0xbdb69feb	-0.08917221
200	0x3dc46533	0.09589615
201	0x3dab6d65	0.08370475
202	0x3d26511a	0.04060469
203	0xbcb35408	-0.021890655
204	0xbda722ad	-0.08160911
205	0xbdc95757	-0.09831112
206	0xbd1716ea	-0.036887087
207	0xbda40338	-0.080084264
208	0x3dc36909	0.09541518
209	0xbdb076c2	-0.08616401
210	0x3d405ed2	0.046965428
211	0x3cd2b404	0.025720604
212	0xbc3e1100	-0.011600733
213	0x3d458dd2	0.048230954
214	0xbc9afd68	-0.018919662
215	0x3d26e30e	0.04074388
216	0x3dca2d25	0.09871892
217	0x3da1855f	0.07886767
218	0x3dbe145d	0.09281228
219	0xbd49e123	-0.049286973
220	0x3d93fab3	0.072255515
221	0xbdc37d90	-0.095454335
222	0x3d1d3e6a	0.0383896
223	0x3d0003f2	0.031253763
224	0x3c5ab790	0.013349429
225	0xbd674c13	-0.056469034
226	0xbdc4876b	-0.095961414
227	0x3d988179	0.0744657
228	0xbd99ec75	-0.07515804
229	0xbd4970e3	-0.049179923
230	0xbdc604bb	-0.09668871
231	0xbb28ab40	-0.0025736839
232	0xbdcc03b7	-0.09961646
233	0x3dc9e959	0.09858961
234	0x3d516bf2	0.051128335
235	0x3ca0030c	0.019532703
236	0x3c8c0198	0.017090604
237	0x3dc95745	0.098310985
238	0x3d40cd2a	0.04707066
239	0x3d5234a2	0.051319726
240	0x3d889263	0.06668546
241	0xbd240ccd	-0.04005127
242	0xbda7d98a	-0.08195789
243	0x3d35cc26	0.044384144
244	0xbdc89efb	-0.09795948
245	0x3d3e2a02	0.04642678
246	0xbc3fa298	-0.01169648
247	0x3d368bce	0.044566922
248	0xbd99b628	-0.07505447
249	0xbd3f5e9d	-0.04672109
250	0x3bd40e20	0.0064714104
251	0x3c809a88	0.015698686
252	0xbda0ad90	-0.078456044
253	0x3d6d226a	0.057894148
254	0xbdaba575	-0.08381168
255	0xbdb127f2	-0.08650197

lstm.bias_ih_l1 f4 [400]
0	0xc009bd1b	-2.152167
1	0xc00a932f	-2.1652334
2	0xc00c4aef	-2.1920736
3	0xbf860e63	-1.047314
4	0xc00d0c15	-2.2038624
5	0xc00aedc1	-2.1707613
6	0xc00b5cd7	-2.1775415
7	0xbf3b357d	-0.7312849
8	0xc00b10ab	-2.1728923
9	0xc00c2571	-2.1897852
10	0xbd173fa8	-0.03692594
11	0xc0086f92	-2.1318097
12	0xbf4ca9dd	-0.7994669
13	0xbfff9a0b	-1.9968885
14	0xc00aca5a	-2.1686006
15	0xc00666b8	-2.1000195
16	0xc00dfd1c	-2.2185736
17	0xbf496f80	-0.7868576
18	0xc00e558e	-2.2239718
19	0xbf337a6a	-0.70108664
20	0xbf836c73	-1.0267471
21	0xbf88cc7d	-1.0687405
22	0xbeb04f63	-0.34435567
23	0xbf4e305c	-0.8054254
24	0xc00e5c7d	-2.224395
25	0xc0011ef1	-2.0175135
26	0xbee2c07b	-0.44287476
27	0xc0026a6c	-2.0377455
28	0xc00aed6a	-2.1707406
29	0xc00b6487	-2.1780107
30	0xc00468f3	-2.0689056
31	0xbf4b5d9e	-0.79439723
32	0xbf98d1b2	-1.1938994
33	0xc00b2075	-2.173856
34	0xc00b4ffd	-2.176757
35	0xbe357c8e	-0.17723295
36	0xbe4bdf17	-0.19909321
37	0xc0093053	-2.1435745
38	0xbf729349	-0.9475599
39	0xc0092ae3	-2.1432426
40	0xc00ad76c	-2.1693983
41	0xc00bb826	-2.1831145
42	0xc00bc7fa	-2.1840806
43	0xbeca3346	-0.39492244
44	0xbf21d08e	-0.63208854
45	0xc006cabf	-2.1061246
46	0xbe804b76	-0.25057572
47	0xc0061c1e	-2.0954661
48	0xc01307cc	-2.297351
49	0xc00f1239	-2.2354872
50	0xbf506769	-0.8140779
51	0xc00405bc	-2.06285
52	0xc00d7bad	-2.2106736
53	0xc00c716a	-2.1944222
54	0xc00c7e34	-2.1952028
55	0xc00af87c	-2.1714163
56	0xc00cdfb9	-2.201155
57	0xc00ed023	-2.2314537
58	0xc00ccd55	-2.2000325
59	0xc00cdbe2	-2.2009206
60	0xc006a4f5	-2.1038182
61	0xc0092ebc	-2.1434774
62	0xbf5e6911	-0.8687907
63	0xc00762eb	-2.1154125
64	0xc004d3bc	-2.0754232
65	0xc007e76c	-2.1234999
66	0xc00cc3d6	-2.1994529
67	0xc00855a4	-2.130227
68	0xbeb4c58e	-0.35306972
69	0xc009504c	-2.145526
70	0xc007d4d9	-2.1223662
71	0xc0081f38	-2.1269054
72	0xc00450bb	-2.0674274
73	0xc00b5d56	-2.1775718
74	0xc0077298	-2.1163692
75	0xc009a217	-2.1505182
76	0xc00bf651	-2.186909
77	0xc00bd804	-2.1850595
78	0xc00855f7	-2.1302469
79	0xc00a81b8	-2.1641674
80	0xc006928c	-2.1026945
81	0xc0020cb2	-2.0320249
82	0xc00d71ea	-2.2100778
83	0xc006c858	-2.105978
84	0xc00d512f	-2.20808
85	0xc0084487	-2.1291826
86	0xc00d47eb	-2.2075145
87	0xc00ff776	-2.2494788
88	0xc008ade2	-2.135613
89	0xc0031dad	-2.0486863
90	0xc0086cad	-2.131633
91	0xbe87a4f2	-0.2649303
92	0xc00ac98f	-2.1685522
93	0xc009dee0	-2.1542282
94	0xc007afa8	-2.1200962
95	0xc0083476	-2.128202
96	0xc0018391	-2.0236552
97	0xc010705d	-2.256858
98	0xc00f9ff5	-2.244138
99	0xc0081ba3	-2.1266868
100	0xbd9f124a	-0.0776716
101	0x3d89b929	0.067247696
102	0x3ca6a718	0.020343348
103	0xbdc1481f	-0.09437584
104	0xbdcb3b27	-0.09923392
105	0x3d6070d2	0.054795094
106	0xbdbbf4f3	-0.0917758
107	0xbd16f584	-0.036855236
108	0xbdc420c2	-0.095765606
109	0xbc1d3428	-0.009594955
110	0xbc164750	-0.009172276
111	0x3dc259fd	0.0948982
112	0x3c047a50	0.008085802
113	0xbd01a3f6	-0.031650506
114	0xbd516803	-0.051124584
115	0x3da2dc49	0.07952172
116	0x3d867431	0.065651305
117	0xbc2d5268	-0.010578729
118	0xbd9cca73	-0.076558016
119	0xbd940793	-0.07228007
120	0x3bb50780	0.0055245757
121	0x3cf8315c	0.030296974
122	0xbc8a7eec	-0.016906224
123	0xbdacae0b	-0.084316336
124	0x3c3b9850	0.011449888
125	0xbc3c8d00	-0.011508226
126	0x3cc05488	0.023477808
127	0xbd69d69a	-0.057089426
128	0xbdae6c77	-0.08516782
129	0xbcdf10b8	-0.027229652
130	0x3d2f4d86	0.04279854
131	0x3d313696	0.043264948
132	0xbcb8b6e0	-0.02254814
133	0x3dc60efb	0.09670826
134	0x3d99e27b	0.07513901
135	0x3d9b1cb9	0.07573838
136	0xbd3f293d	-0.046670187
137	0x3da8df9b	0.08245774
138	0x3d4f01d2	0.050538845
139	0x3dc7a8e9	0.09749014
140	0x3d8abcd5	0.06774298
141	0x3c072d10	0.00825049
142	0xbcce44d8	-0.025179312
143	0xbd955ffd	-0.07293699
144	0x3d9e2543	0.07721951
145	0xbdac4828	-0.084122
146	0xbc4776d0	-0.012174323
147	0xbd8c7c58	-0.06859654
148	0xbcccac6c	-0.02498456
149	0x3da87317	0.08225077
150	0x3c021380	0.0079392195
151	0xbd9ea1b5	-0.07745687
152	0x3d7d5a4a	0.061853684
153	0xbd68e397	-0.05685767
154	0x3cff1024	0.031135626
155	0xbc1d2d00	-0.009593248
156	0x3dac6ac7	0.08418804
157	0x3d0987ee	0.0335769
158	0xbda6d686	-0.08146386
159	0x3ad75340	0.0016428009
160	0x3c9db7ac	0.01925262
161	0xbd6623d7	-0.056186523
162	0xbd9a9573	-0.075480364
163	0xbdbcb9a5	-0.092150964
164	0xbc392d18	-0.011302255
165	0x3d27935a	0.04091201
166	0x3ca2e22c	0.019883238
167	0x3d0fb972	0.035088964
168	0xbdb6cb8a	-0.08925541
169	0xbccef780	-0.025264502
170	0xbd7a376d	-0.061088014
171	0xbd8604cd	-0.065438844
172	0xbcaeecac	-0.021353088
173	0x3d919001	0.07107545
174	0x3d87b9ab	0.0662721
175	0x3d289a4e	0.04116278
176	0x3cca232c	0.024674974
177	0xbb975fb0	-0.004619561
178	0xbc84cfcc	-0.016212367
179	0x3dc54d5b	0.09633895
180	0xbcbde200	-0.023179054
181	0x3d8b8b23	0.068136476
182	0xbdb9ee6b	-0.09078678
183	0x3d88753d	0.066629864
184	0xbc981bd4	-0.018567957
185	0xbd61da63	-0.05513991
186	0x3c609770	0.0137079805
187	0x3d43cdbe	0.047803633
188	0xbd86f23c	-0.06589171
189	0xbd056686	-0.032568477
190	0xbda77add	-0.08177731
191	0xbd5cfa93	-0.053949904
192	0x3c7e23e8	0.01551149
193	0xbcbd05a0	-0.023073971
194	0x3c5fc2d0	0.013657287
195	0x3c41d9c0	0.011831701
196	0x3d64028a	0.055666484
197	0xbd506483	-0.050877105
198	0x3d9a6ce7	0.07540303
199	0xbd2f913a	-0.04286311
200	0x3d693de9	0.056943808
201	0xbbe6733e	-0.007032781
202	0xbce496c9	-0.027903931
203	0xbd1492ff	-0.036273
204	0x3c0ef898	0.008726262
205	0xbd263117	-0.04057416
206	0x3ba15a1f	0.0049240733
207	0x3d924636	0.07142298
208	0xbc68cf68	-0.014209606
209	0xbd763cd4	-0.060116604
210	0x392b7cea	0.00016354365
211	0x3d701aaa	0.05861918
212	0x3bd0beca	0.0063704
213	0xbc997678	-0.018733248
214	0xbd8077cc	-0.062728494
215	0x3c6c36c1	0.014417351
216	0x3d37804e	0.044800095
217	0xbcde0ba5	-0.027105162
218	0x3c83ea6f	0.016102998
219	0x3c3634b5	0.011120965
220	0xbdf23d6c	-0.118281215
221	0xbd550db8	-0.052015036
222	0x3d8d65a2	0.069041505
223	0x3cf62b8c	0.030050062
224	0xbade5e0f	-0.0016965288
225	0x3d656c51	0.0560115
226	0xbd4ada0b	-0.04952435
227	0x3d1850ba	0.03718636
228	0xbd41cfad	-0.047317196
229	0xbd9f3238	-0.0777325
230	0xbcdf7fb0	-0.027282566
231	0x3d981659	0.074261375
232	0x3d7775ee	0.0604152
233	0x3cd79173	0.026314473
234	0xbcf4788b	-0.029842636
235	0xbd5fe800	-0.05466461
236	0xbd63cedd	-0.055617202
237	0x3d328e8d	0.04359298
238	0x3d8035ae	0.062602386
239	0xbd9e7ff9	-0.077392526
240	0xbada1b92	-0.0016640297
241	0xbd3c8c42	-0.046032198
242	0x3aec4da3	0.0018028509
243	0x3d2e0c96	0.04249247
244	0x3abb5ecb	0.0014295218
245	0x3bb096df	0.005389079
246	0xbd478863	-0.048714053
247	0x3d7b5dbd	0.061368693
248	0x3d99a6ef	0.07502543
249	0xbd082a40	-0.033243418
250	0x3d452e20	0.04813969
251	0xbd0d02fe	-0.03442668
252	0x3b01ee9a	0.0019826056
253	0xbcfe95b0	-0.031077236
254	0x3cdc4102	0.026886467
255	0x3cad0913	0.021122491
