pth/stock_parameters.pth (torch, 143030 bytes, 9 tensors)

lstm.weight_ih_l0 f4 [200, 20]
00000000: 0e37 57bd 6e37 e8bd 9384 1ebd 8df0 51bd
00000010: bc02 20bd 2bde 0f3e c2d7 b43c f41a 0c3e
00000020: 4afe a6bd 5113 0b3e 49eb 103d a0a5 873d
00000030: 5a5c dabd 9d23 dcbc ff88 c43d 49e2 d8bd
00000040: 613f c43d 584e e63d 6666 44bd 46a0 303e
00000050: 79e6 503d e81c 533d 42cc 07be 4bb1 f9bd
00000060: 9fca 10bd a194 a0bd 24da e1bb b8c2 aebd
00000070: de9f c0bd 909f 1ebe cebc 92bd 890d 8f3d
00000080: b5e2 cfbd 06bf 83bc 21ac 81bd dfa8 6d3d
00000090: 70e0 e43c 3f6a 743d 2308 0abd 7c20 b93d
000000a0: e239 a53d 8773 133e f106 d5bd 6505 24bd
000000b0: 2400 cabd 0e1c 8bbd df9e ad3d f256 a83d
000000c0: 6be1 953d f532 1a3e 8f4e bcbc 246c 46bb
000000d0: d9a2 d83d 87be 86bd f105 77bd 3ca6 acbd
000000e0: c340 e53d 811f 68bd 3af6 d83c 295a 463e
000000f0: 6c39 fa3c a2b0 14bc 82cb 0bbd afb6 1b3e
00000100: 3e29 47ba f79b 6cbd 3215 9bbd 5316 083d
00000110: afd1 74bd fa9d dfbd 48c8 883d 5132 b7bc
00000120: 8747 daba daf1 61bd c8e5 80bd 0a7b 76bd
00000130: 1414 863d 2759 56bd 4528 ccbd 8c9b c4bd
00000140: 7927 ab3c fb80 19be 7f53 94bd d9d7 dd3d
00000150: 24d6 babd af50 31bd b92a b53d 64c4 b43c
00000160: 6dce e33d d555 07bd 3b84 48bd 5798 02be
00000170: 602d 5c3d c02c 05be 514f 3abd a834 8dbd
00000180: 2078 c53b fe2b 16bd 5cd3 e7bd 2cd5 d6bd
00000190: 6c56 66bc dff8 923d 76f1 ae3c eb86 f6bd
000001a0: 55f5 d2bc 4013 a63c bd45 9a3d f71e 203d
000001b0: 3a7e 87bd 7cf3 45bd 1221 23be a95f 5fbd
000001c0: 55dc 18be 4ad2 12be c33e 9f3d f8de 0bbd
000001d0: 4aa2 a33d e149 1cbe de96 893d 3cce bd3c
000001e0: eee5 843d 6d6f bebd a6f6 823d af23 013e
000001f0: c2cb 1d3e 6ce8 f8bb cad6 adbd 50a3 e43d
00000200: 0c18 fe3d 80f7 e5bc c220 15bd acab 043e
00000210: caf0 00bd 9577 093c 12e7 aabd ffb9 b93d
00000220: d946 99bd 82dc 0f3d 558c 07bd ddb8 0d3d
00000230: 6f3f 643c 3ca3 0bbe 8f8d 943d fe30 1f3d
00000240: a610 fa3d 3584 d93d 2b03 04bc ba0f 07be
00000250: 65e8 90bd b732 843b 7ec7 cc3d dbc9 a73b
00000260: bf6f 54bd db3e 71bd f0ca 15be a1ea f93c
00000270: c8f3 0cbc 2c81 0dbe 1d2e 3abe c663 15be
00000280: bab4 8c3c e753 de3d 0cf0 22bd 1be8 efbc
00000290: 796c 79bd e39d 8c3d b340 16bd 5ce8 fb3d
000002a0: 2dcb 043c b30e ca3d e867 323c 5fa9 54bd
000002b0: aa25 c5bd 40fc de3d df06 70bd 594f e8bb
000002c0: 8066 9f3c 3a10 b2bd 4ee4 153e 26a0 ba3d
000002d0: d027 973d 6873 f8bc f11f a8bc 55c0 6c3c
000002e0: 01d8 eb3c 954e e73d b658 ba3d 7975 aebd
000002f0: 27ab 80bd cd4d d0bd 7932 8c3d 0c99 b73c
00000300: 610f f1bd 413b 063e 4bc7 90bd 4971 93bd
00000310: 9208 a5bc ab42 993d 4578 a33d 38e4 4d3e
00000320: fe16 83bd 7294 2fbc 9245 9fbd a393 a03c
00000330: a030 fdbb 6aa0 93bd c612 103d 4a4b f03d
00000340: d5ad c93d d485 0f3e 7ebf edbd 5c86 453c
00000350: 315d 193e 3712 e7bc a907 28bd ba7c 03be
00000360: 884a e9bd 6a42 06bd 2dc6 343d 8acb 8dbe
00000370: 84f2 22bd a75a e6bd 9424 bc3d bacf 463d
00000380: 1918 923c 923d 70ba 381f e8bc 08d8 e1bc
00000390: 85b5 463d 4dad b7bd ea7a fa3d 21c0 62bd
000003a0: 5638 78bd aca0 a23d c10b ffbb 2dea 2cbd
000003b0: d31c 9a3d c8ef abbd 55d6 193e 5d42 713e
000003c0: 5c05 a33d d15d 88bd 0a19 e3bd 4863 5d3d
000003d0: bee8 78bd 2664 9a3b d61f 73bd 51a8 c93c
000003e0: 7090 b1bd 9022 4d3d 086c 4fbd 34b0 5a3d
000003f0: edab 9cbd e8e0 47bd 2822 013d 3873 1ebc
-0.05254274 -0.113386974 -0.03870065 -0.051254798 -0.039065108 0.14049594 0.022075538 0.13682157
-0.081539705 0.13581587 0.035380635 0.06623387 -0.10662146 -0.02687245 0.095964424 -0.105900355
0.09582401 0.11245412 -0.047949217 0.1724864 0.051001046 0.05154124 -0.13261512 -0.12192019
-0.035349485 -0.07840849 -0.0068924595 -0.085332334 -0.09405492 -0.15490556 -0.07164918 0.069850035
-0.10150663 -0.016082298 -0.06331659 0.058022376 0.027939051 0.059671637 -0.033699166 0.09039399
0.08067681 0.14399539 -0.104017146 -0.040044207 -0.09863308 -0.067924604 0.08477568 0.082197085
0.07318386 0.15058501 -0.022986678 -0.003027686 0.10577936 -0.06579309 -0.0603084 -0.08430144
0.11193993 -0.05667067 0.026484597 0.19370331 0.030544959 -0.009075316 -0.034129627 0.15206407
-0.0007597393 -0.057765927 -0.07572402 0.033224415 -0.059770282 -0.109188035 0.066788256 -0.02236286
-0.0016653397 -0.05516229 -0.06293827 -0.060175933 0.06546798 -0.052331116 -0.09968618 -0.09599981
0.020892845 -0.14990608 -0.07242488 0.10832185 -0.09122875 -0.043289836 0.08846039 0.022066303
0.11123357 -0.03304084 -0.04895423 -0.12753426 0.05375421 -0.13005352 -0.0454858 -0.06894809
0.006026283 -0.036663048 -0.113196105 -0.10489878 -0.0140586905 0.07176375 0.021355372 -0.12037452
-0.025751749 0.020272851 0.07532833 0.03909203 -0.06615873 -0.048327908 -0.15930584 -0.054534588
-0.149278 -0.14338031 0.07775643 -0.034148186 0.079899386 -0.15262558 0.06718229 0.02316963
0.06489168 -0.092985965 0.06394701 0.12611268 0.15409759 -0.007596066 -0.084882334 0.11163962
0.1240693 -0.028072119 -0.036408193 0.12956113 -0.031479634 0.008390327 -0.083448544 0.09068679
-0.07484216 0.035122402 -0.033092815 0.034600127 0.013931139 -0.13636488 0.07253563 0.038865082
0.12210207 0.106209196 -0.008057396 -0.13189593 -0.07075576 0.004034366 0.099989876 0.0051204986
-0.051864382 -0.058897834 -0.14628196 0.030507388 -0.008603044 -0.13818806 -0.18181653 -0.14588842
0.01717602 0.10855847 -0.039779708 -0.029285481 -0.060894463 0.06866052 -0.036682796 0.123001784
0.0081050815 0.09866085 0.010889031 -0.051919337 -0.096263245 0.108879566 -0.058600303 -0.007089537
0.019458055 -0.08694501 0.14637873 0.09112577 0.073806405 -0.030328467 -0.020523043 0.014450152
0.028789522 0.11294285 0.090989515 -0.085185 -0.06282645 -0.10171089 0.068455644 0.022411846
-0.117705114 0.13108541 -0.07069262 -0.07199342 -0.020145688 0.07483419 0.07981924 0.2010659
-0.0640087 -0.010716544 -0.07776941 0.019601649 -0.007726744 -0.07208331 0.035174154 0.1173311
0.09847609 0.14015895 -0.1160879 0.01205596 0.14976956 -0.028206928 -0.04102293 -0.12840548
-0.11391169 -0.03277818 0.044134308 -0.2769435 -0.039782062 -0.11247759 0.09186664 0.048537947
0.017833756 -0.0009164448 -0.028335199 -0.027568832 0.048512954 -0.089686014 0.12230475 -0.05535901
-0.0606006 0.07940802 -0.0077833836 -0.042215515 0.07525029 -0.08395344 0.15023167 0.23560472
0.079600066 -0.06658519 -0.1108876 0.05404976 -0.060768835 0.0047116457 -0.059356533 0.024616392
-0.086701274 0.05008179 -0.050640136 0.053390697 -0.0764998 -0.04879847 0.031526715 -0.009671025

lstm.weight_hh_l0 f4 [200, 50]
00000000: 70b1 643d 6c07 c03d c047 013d abc8 e3bd
00000010: a8e9 80bd 3ae2 0dbe 8061 cd3a d405 9f3d
00000020: f095 8c3d 541a 243d b835 a43d f892 f83c
00000030: bca7 9f3d f605 b7bd a085 7e3c 0e4f fbbd
00000040: 0074 3ebc 044c 793d 80da 0d3d e46f 9b3d
00000050: 067b b33d b4e0 a1bd 429a 9c3d be8d c9bd
00000060: 5805 1fbd 64e0 87bc da97 963d a823 ae3d
00000070: 82f0 823d 8833 e5bd 706a e5bd 1a99 833d
00000080: 46e6 a5bd b0e1 0c3d b823 9c3c 74f4 393d
00000090: 42dd 8a3d 76e2 3dbd dae0 ee3d 10fc 943c
000000a0: 1b14 033e 334e e0bd 692a ebbd 6d6c 0cbe
000000b0: eef6 eebd ccd4 19bd 5a93 983d 0093 343a
000000c0: 09f1 d8bd 60eb 693c 3252 abbd f0ec 86bd
000000d0: 5079 433d 7eee 6cbd 5b04 003e 0891 b23d
000000e0: c55c 90bd b834 da3d 0884 a4bc d234 b1bd
000000f0: 36f1 04be c4e5 6c3d 1890 0abe 1c57 92bd
00000100: 18af 783d 84c5 933d a650 10bd 6de9 c2bd
00000110: de68 d8bd ae04 b53d 3e00 df3d a088 b03c
00000120: 468d c0bd 90e7 0d3c 00e6 6ebb 6384 a5bd
00000130: dea2 f03d c6e2 b4bd 3e96 d1bd b6aa e63d
00000140: d05d 023d 00da a3b9 a793 073e d024 ad3d
00000150: 76a5 e3bd f24d fe3d 228e 7abd a013 f7bc
00000160: fab2 e13d 80cd 30bc 0c34 6f3d e700 96bd
00000170: 0059 1d3a e2a6 3ebd 288b bbbd c31b 0a3e
00000180: 2a94 76bd aa52 03be 67f3 8fbd a9d1 a0bd
00000190: 3061 7f3d d801 1d3d fceb bebd 9442 a83d
000001a0: c6f8 ba3d cff1 093e 90db 303c 42e6 bcbd
000001b0: 1373 acbd feaa d23d aa72 91bd f0b8 d7bc
000001c0: 9ad4 5ebd 604e c43c bb76 013e e13f 01be
000001d0: 9025 29bd 0dad 0e3e 802b 813d 77ed 043e
000001e0: 0a62 44bd 551f 83bd 255b aebd 788d 503d
000001f0: 0801 793d 4364 87bd c8e3 3b3d 6c29 a1bc
00000200: 4853 523d 2085 143c cae1 df3d 3af2 f73d
00000210: 0a38 f6bd d03d 0ebd 2ad6 d0bd dcf9 9fbd
00000220: a63f cebd 1068 f73c 3c5c 0cbe 4b01 0bbe
00000230: 5cda 6f3d 84a9 353d 867e f2bd 1023 943c
00000240: 4ce6 673d aec4 c63d 9201 f83d 50e9 72bc
00000250: 3433 a1bd c88c 6a3d 66db bd3d a4d6 403d
00000260: a87d a83c 6bc2 f0bd e630 3cbd e9b9 eabd
00000270: dc03 e2bc 4eb0 e93d 3041 c5bd b82e e13c
00000280: 8084 c53d 46a7 07be 7904 8ebd 0699 a63d
00000290: 3042 c0bd 70b3 c23d b9af 9cbd 31b2 82bd
000002a0: befc f43d e8c6 8fbd 1c21 ccbd 98ee 1c3d
000002b0: 0aea d13d 6411 b1bd 6850 e73c 924a 9e3d
000002c0: 8aad bd3d 4220 f03d 80fb 5cbc 9120 eabd
000002d0: f04f 013c ee79 debd c47e 3f3d 6e4b ec3d
000002e0: 5ef9 9dbd 1886 13bd 02b9 b93d 5027 333d
000002f0: ef16 0c3e fc52 a9bd a04c 133d b08f 0b3d
00000300: fe92 23bd 9af7 cb3d 7a2f f93d 41be a4bd
00000310: 798f 003e e864 b8bd 35dd 013e ee09 f73d
00000320: dc65 0dbe 00e3 ec3c 7856 6c3d 4e5d 2cbd
00000330: fefd a13d c039 1c3b e8a4 ef3c 60c3 b23c
00000340: b85a 5c3d 10f6 4a3c cc58 b43d 8b1c aabd
00000350: ae9a f03d 78c4 67bd 96bf 91bd 8023 6c3d
00000360: 8093 c0bb 8c12 433d a067 b23d 7e42 fe3d
00000370: 34fc cf3d 4e2e e83d c33c 86bd 1e9b f2bd
00000380: c215 7bbd 84ea f2bd 406d db3b ad27 02be
00000390: dc6f d83d bd20 0c3e 279b 0a3e e47d b13d
000003a0: b8eb 1bbd f009 03be 6d61 92bd 15a0 0ebe
000003b0: 7254 98bd 48b0 123d ee26 d73d f0d3 e2bc
000003c0: 1e84 b4bd 299b 05be 32ba a8bd 3e5d cf3d
000003d0: 007a a43a c09b 773c 00b2 abbb 47f3 a5bd
000003e0: d08c 8f3c 1082 b63d 1d6f 0d3e e867 c73c
000003f0: d406 8a3d d081 153d 24e8 bbbd c037 3b3d
0.05583328 0.093764156 0.031562567 -0.11122259 -0.062945664 -0.1385583 0.0015669316 0.077647835
0.06864536 0.04006417 0.080180585 0.030343518 0.07795665 -0.08936684 0.015534788 -0.12270938
-0.011624336 0.06086351 0.034632206 0.07589701 0.08763699 -0.07904187 0.0764661 -0.09841488
-0.038823456 -0.01658649 0.07353182 0.08502895 0.063935295 -0.111914694 -0.11201942 0.06425686
-0.08100562 0.03439492 0.01906 0.045399144 0.06780483 -0.046358548 0.11663981 0.018186599
0.12800638 -0.10952415 -0.114826985 -0.13713236 -0.11668192 -0.037556455 0.0744998 0.000688836
-0.10592849 0.014277309 -0.08365287 -0.06588161 0.047723114 -0.05784463 0.12501661 0.08719069
-0.070489444 0.106545866 -0.020082489 -0.08652653 -0.1298264 0.05783631 -0.1353153 -0.07145521
0.060713857 0.072154075 -0.035233162 -0.09517179 -0.10566877 0.08838783 0.10888718 0.021549523
-0.09401946 0.008661166 -0.0036453009 -0.080818914 0.117498145 -0.08832316 -0.102337345 0.11263029
0.031827748 -0.00031252205 0.13239919 0.08454287 -0.111155435 0.12417211 -0.061170705 -0.030160725
0.11020465 -0.0107911825 0.058399245 -0.07324391 0.0006002337 -0.04654587 -0.09157401 0.13487153
-0.060199894 -0.12824503 -0.07028847 -0.078524895 0.062348545 0.038331836 -0.09322354 0.08215824
0.09129481 0.13471149 0.010794535 -0.09223606 -0.08420386 0.102865204 -0.071019486 -0.026333302
-0.05440197 0.023963153 0.12642948 -0.12622024 -0.041295588 0.13933201 0.06307125 0.1298121
-0.04794506 -0.064024605 -0.08513478 0.050916165 0.060792 -0.0661092 0.045871526 -0.019673072
0.051348954 0.009064943 0.10931738 0.12106748 -0.12022407 -0.034726918 -0.101970986 -0.07811329
-0.10070734 0.030200988 -0.1370706 -0.13574712 0.058557853 0.044351116 -0.11840539 0.018083125
0.056616113 0.097054824 0.121096745 -0.014826134 -0.07871094 0.057263166 0.092703626 0.047079697
0.02056773 -0.11755832 -0.04594507 -0.11461241 -0.02758973 0.114105806 -0.09631574 0.027488098
0.09644413 -0.13247404 -0.06934447 0.08134656 -0.09387624 0.09506881 -0.07650704 -0.063816436
0.11962269 -0.0702036 -0.099672526 0.03831348 0.102497175 -0.08645895 0.028236583 0.07729067
0.092616156 0.11724903 -0.013487697 -0.11431993 0.007892594 -0.108631 0.046751752 0.115378246
-0.07713579 -0.036016554 0.090684906 0.043738663 0.13680623 -0.08267781 0.035961747 0.034072578
-0.039935105 0.099593356 0.121672586 -0.080441006 0.1255473 -0.09003621 0.1268204 0.12062441
-0.13808388 0.028916836 0.05769965 -0.04208117 0.07909773 0.0023838133 0.029253438 0.021821678
0.053797454 0.012387767 0.08805999 -0.083062254 0.11748253 -0.05658385 -0.0711662 0.057651043
-0.0058769584 0.04762511 0.08711171 0.12415026 0.10155526 0.11336957 -0.06554558 -0.118459925
-0.061300047 -0.118611366 0.006696373 -0.12710448 0.105682105 0.13684364 0.13535748 0.0866659
-0.038066596 -0.1279676 -0.07147489 -0.13928254 -0.07437982 0.035812646 0.10505472 -0.02768895
-0.08814262 -0.1304747 -0.08238639 0.101252064 0.0012548566 0.015112817 -0.005239725 -0.08103042
0.0175232 0.08911526 0.13811918 0.024341539 0.067395836 0.036500752 -0.09175137 0.045707464

lstm.bias_ih_l0 f4 [200]
00000000: 1be6 ecbd d261 fe3d 5ecc 283d bcf2 6cbd
00000010: a06b 6b3e d1ba cd3d 26a9 523d d9bf e43d
00000020: b60c d73d b4ec 443d c076 0fbd 9e37 823c
00000030: ef98 f03d 26bf ac3d d30c 7b3d 9dff 753d
00000040: bb6b c1bc 859e 1c3e ff3c 0fbe 69d8 ee3d
00000050: 94b9 293d 7075 fc3d 6a4a 433d 59b8 17bd
00000060: dcd6 953d 7cc1 033e e246 993d c73f 1a3e
00000070: 7eb6 61bd 6d36 c23c 087d 043d aa87 423d
00000080: 4c7f 76bd 147e c53d ca0b 083e 7f61 df3d
00000090: 3d1d f4bd 9ca5 8c3d 2801 1a3e 6b57 83bd
000000a0: 787a 973d efc9 533e b27a 33bd 0165 a53d
000000b0: b732 873d 7d83 bcbd ad2c 48be e3f2 c33b
000000c0: 28a1 8a3d 1d2b 05be 9f2a 043e ba09 ac3d
000000d0: 3b4c c8bd f20a 49bd 07f1 c1bd 4acc bbbd
000000e0: 8ded 0c3e 61e2 0fbe b034 cd3c eae3 953d
000000f0: 2c57 213d dcec b13d 542c edbc 1a8b d53d
00000100: 26a5 e23d dc0f a83d 7d92 0d3e 680c b0bd
00000110: d0bf 9f3d 4aea 1dbd 1afa 3dbd 8a78 32bd
00000120: 60f3 303c a15d b8bd 684b 663d 286b 11bd
00000130: 4863 eebc 2088 503d a240 a73d 8014 30bd
00000140: a077 f33c 5e2f 31bd cf31 8cbd 1629 883d
00000150: ece9 523d a874 dabc 26b6 f63d 6485 04be
00000160: baac ea3d 6ad8 b3bd 14a6 92bd 0094 4c39
00000170: bc2a 2dbd 02d8 61bd 5a74 bcbd 460b f73d
00000180: 924a be3d 2487 ccbc f360 e9bd 0036 d5bc
00000190: eefc d23d ae49 df3d 15c3 f2bd a13f 91bd
000001a0: f2a2 3e3d bfd9 c0bd 2b72 2a3d 3653 03be
000001b0: 7c32 08bd 1458 65bd 43a9 423e 1b0b a8bd
000001c0: ac69 f13c cad9 55bd 3add bcbd 04ea 6dbd
000001d0: e3ef af3d 02dc 12be 59a0 e4bd 3ebb 323e
000001e0: a583 373e c550 be3d 7a46 09bd 5eb0 0f3e
000001f0: 6614 d43d 5457 e0bd 735d 483d 9dbf a33d
00000200: 2484 37bc 19a6 89bd 62fa 733b 8abb 9f3d
00000210: c6d3 ccbd 83cc e93d 8ac7 873d 4ab8 f63d
00000220: de91 6fbd d01f 143a f276 88bd 1003 5dbe
00000230: 031b a53d 54ee 3d3d fb5f 20bc a320 12be
00000240: bd67 863c d4a1 013e d146 85bd 042c 6f3d
00000250: 80a0 22be e701 b4bc 5a03 61bd f52b 13bc
00000260: 24dc 90bb 221b 9bbd 995b 233e 48d0 33be
00000270: 518f 1a3e 4982 b1bc e5d8 c53d eb63 02bb
00000280: a9b0 213d 44d4 8c3d 9b17 fe3d e4a8 c03d
00000290: cc5b b23d 2eab 8f3d d002 66bb 443e a33c
000002a0: c700 a23d 1d0e bc3d 4204 0fbd 970c 97bd
000002b0: 7d96 ee3d 44f7 f8bd a48b bb3d f9e2 efbc
000002c0: 5de3 47bd 595b 2b3e fb5a 8bbd 84f2 473d
000002d0: 2c2c 523d 4e9c ecbd a257 b83d 65cb b9bd
000002e0: d8fc 673d 9349 003c a908 dfbc 6ba0 debd
000002f0: 78b9 093e 5071 d93c 94b9 94bd 63d3 0b3e
00000300: 4701 99bc 50c8 a83d cabc 1d3c 1b6b c03d
00000310: 0898 043c 656d 963d f9af a2bc 0de2 afbd
-0.11567327 0.124210015 0.041210525 -0.057848677 0.22990274 0.10045398 0.051430844 0.111694045
0.10500471 0.0480773 -0.03502536 0.015895661 0.1174792 0.08434896 0.061291527 0.060058225
-0.02361094 0.15294845 -0.13988112 0.11662371 0.041436747 0.12327087 0.04767839 -0.037041042
0.07316372 0.12866777 0.07484223 0.15063392 -0.05510568 0.023707593 0.0323458 0.04749266
-0.060179994 0.09643188 0.13285747 0.10907268 -0.11919639 0.06867525 0.15039504 -0.06413158
0.07396406 0.206825 -0.043818183 0.080759056 0.0660147 -0.09204767 -0.19548292 0.005979882
0.06769019 -0.13004728 0.12906884 0.08400293 -0.09780165 -0.049082704 -0.094698004 -0.091698244
0.13762493 -0.140512 0.025049537 0.07318862 0.039389774 0.086877555 -0.028951801 0.10426922
0.11066656 0.0820615 0.13825412 -0.08596116 0.07800257 -0.038553514 -0.046381094 -0.043571986
0.010800213 -0.09002233 0.056224257 -0.035502583 -0.029100075 0.05091107 0.081666246 -0.0429883
0.029720128 -0.043258063 -0.06845438 0.066484615 0.051492617 -0.026666954 0.12046461 -0.1294151
0.11458726 -0.08781512 -0.07160583 0.0001951009 -0.042277083 -0.05513764 -0.0920188 0.12062697
0.09291567 -0.024966784 -0.11395445 -0.026026726 0.10302149 0.10902725 -0.11853615 -0.070922144
0.046542116 -0.09416532 0.041612785 -0.12824711 -0.03325127 -0.0559922 0.1900988 -0.08205243
0.029469334 -0.052209653 -0.09221883 -0.058084503 0.08590677 -0.14341739 -0.111633964 0.1745424
0.17921312 0.09292749 -0.033514477 0.14032122 0.10355453 -0.109541565 0.048917245 0.07995532
-0.011200938 -0.06721134 0.0037228097 0.07799442 -0.1000133 0.11415961 0.06629856 0.12046869
-0.05848872 0.00056504924 -0.06663312 -0.215832 0.08061793 0.046369866 -0.0097885085 -0.14270262
0.016406888 0.12659389 -0.06507648 0.058391586 -0.15881538 -0.021973563 -0.054934837 -0.008982648
-0.004420774 -0.075735345 0.1595291 -0.17559922 0.15093733 -0.02166857 0.0966051 -0.0019895982
0.039475117 0.06876424 0.12406846 0.09407213 0.08708915 0.07015072 -0.0035096891 0.019927152
0.079103045 0.091823794 -0.03491617 -0.07375448 0.11649797 -0.12156537 0.09157494 -0.029283034
-0.048800815 0.16734065 -0.068044625 0.048815265 0.051311657 -0.1155325 0.0900109 -0.090719976
0.056637615 0.007830041 -0.02722581 -0.10870441 0.13449657 0.02654329 -0.07261959 0.13654856
-0.018677367 0.082413316 0.00962753 0.09395429 0.008092888 0.07345084 -0.0198593 -0.08588038

lstm.bias_hh_l0 f4 [200]
00000000: a16f dbbd 92bf 81bd 88aa e83d 4875 243e
00000010: 1e71 253e 43b2 0b3e 30be 3b3c af3f d23d
00000020: 73f3 043e e76f fe3c 1376 2fbe a0ca 02bd
00000030: 5357 363e 57d9 6dbd b23b 823d efa3 0a3d
00000040: ee2d ab3d 0b4d 823b e542 b5bd 028f 343e
00000050: d2a1 25bd 40f0 eb3d fd80 293e f595 f5bd
00000060: 2ad8 41be 1265 953d 5618 d4bd ab13 183d
00000070: 401e c13c 2f21 bcbc ffd2 313e 981b 1a3e
00000080: fecb 973c d17c 90bd 6b55 e33d 9526 063e
00000090: 713a a5bd 94e9 443d 9979 a13c 2470 0c3e
000000a0: 671a 1d3c 4f2c 1b3e b7e4 193e 505d bebc
000000b0: 9e58 8cbd 0173 6f3c e40e 8fbd 6b62 ef3d
000000c0: 23a2 b0bc d27c debd 4044 ffbb c77e 013e
000000d0: 936b 023e 001a 3f3d 608a e0bc 6a3a 66bd
000000e0: 8f5d 0e3e 60c5 3bbc 50da 17bc e256 f93d
000000f0: c06d 233b d297 c7bd 921e bbbd 1489 febd
00000100: 54eb 4c3d e049 d33b 2684 a4bd 10aa 03bc
00000110: 22e8 17bd ce2f ec3d de98 bbbd c470 6e3d
00000120: b027 313d 2f0d 063e 708a dbbc 72c8 e13d
00000130: 582d 993d dfee e2bd 94cd 783d e016 19bc
00000140: 387a 00be 64a8 e0bc 88c0 afbc f80b 353d
00000150: 8289 0ebe 0235 923d 045e 5f3d 4484 143d
00000160: f0c6 973d c21f 55bd b2f3 a6bd 1e75 26bd
00000170: bc8a 653d 1c4e b9bd c0ed 7abb 4a11 ef3d
00000180: db5e a5bd c079 6abd 4043 28bb 4d21 0d3e
00000190: 4ed5 353e 8908 0ebd 34d6 ddbd 1efa 46bd
000001a0: ecbc 57bd d1d7 323c 3b18 38bd 5b6f 99bd
000001b0: 668d 5cbd 3eaf aabc 9b2d 293e fe67 28bd
000001c0: d594 c3bd 8e05 e43d 1609 1b3e 2e77 1bbe
000001d0: c758 cf3d 915a 923d f5b0 8dbd eeb9 d5bd
000001e0: 248e 8c3e 2374 d13d c3de 9d3d 92ab 313e
000001f0: c2de b6bd d5d9 ea3c 4376 2a3e baae 7fbd
00000200: f845 1ebd 643b 0bbe e55c 263e aed9 b53d
00000210: c9ab 0dbe e79a b6bd 18e4 8e3d bc89 c23d
00000220: 6584 74bc 4243 a7bd fb5c 333c b4ee 14be
00000230: 8b4d 0b3e 671f e6bc 1199 3fbd 3b22 843d
00000240: 2265 c63d 0cbf 14bd e318 77bd 1a4d 06bc
00000250: b001 eabd 380e f6bc b91f 0e3e 85b6 e23d
00000260: f183 7fbd c8a3 93bd 657a 1b3e 24df 27be
00000270: 9d06 58bc 0976 ba3c 48b9 f6bc 01eb 433e
00000280: bcc1 03be be4b d8bd 8d0a bb3d 3ee5 d4bd
00000290: 4e03 88bd d286 fb3d df05 b53d de30 05be
000002a0: 6b10 de3d f265 4abc 951b 8dbd b319 163e
000002b0: b0c5 fa3d 90e0 cbbd 19d9 dc3c 6d58 cbbc
000002c0: e904 9c3d 3d43 8c3c 1571 81bb a65f e5bc
000002d0: 03c6 64bb cc15 fd3d d936 423e ee25 80bd
000002e0: 9351 263e fb64 81bd 3a89 a83d 8b14 8abc
000002f0: dc5e d53c f33f 203e 2b3e 8fbd 4d04 32bc
00000300: fd53 1a3e 331a 873c 70e0 aebd 4046 853c
00000310: 87d5 57bd 2da5 873d 9480 fa3d 33dd c5bd
-0.10714651 -0.06335367 0.11360651 0.16060364 0.16156432 0.1364222 0.011458918 0.10266053
0.12983494 0.031059219 -0.17134885 -0.03193152 0.17806749 -0.0580686 0.06359042 0.033847746
0.0835837 0.0039764694 -0.0885065 0.17632678 -0.040437527 0.115204334 0.16553111 -0.11991493
-0.18930116 0.07294668 -0.10356204 0.03712813 0.023573995 -0.022965042 0.17365645 0.15049589
0.018529888 -0.07055057 0.111002766 0.13100655 -0.080677874 0.04807432 0.019711303 0.13714653
0.009588814 0.15153621 0.15028654 -0.023237854 -0.0685284 0.014614821 -0.06985262 0.116886936
-0.021561688 -0.10863651 -0.0077901185 0.12646018 0.12736349 0.046655655 -0.027409732 -0.05620805
0.13902877 -0.011460632 -0.009268358 0.12174775 0.0024937242 -0.09745754 -0.0913669 -0.12428489
0.050029114 0.0064480156 -0.08033018 -0.0080361515 -0.037086613 0.115325555 -0.091600165 0.05821301
0.04325074 0.13090967 -0.02679941 0.1102456 0.07479352 -0.11080717 0.06074293 -0.009343833
-0.12546623 -0.027424045 -0.02145411 0.044200867 -0.13919643 0.07139017 0.05453302 0.03625895
0.07410991 -0.05203224 -0.0815195 -0.040639035 0.05604051 -0.09048101 -0.0038288683 0.116732195
-0.08074733 -0.057245016 -0.002567485 0.13782234 0.1775715 -0.03467611 -0.10831872 -0.048578374
-0.052670404 0.010915712 -0.044944983 -0.074919425 -0.053845786 -0.020835515 0.16521303 -0.0411148
-0.09549872 0.11133872 0.15140185 -0.15182182 0.10124355 0.071461804 -0.069185175 -0.10435854
0.27452195 0.102272294 0.07708504 0.17350605 -0.089292064 0.028668324 0.16646676 -0.06242249
-0.038640946 -0.13596874 0.16246374 0.0887941 -0.13835062 -0.08916264 0.06977099 0.09498927
-0.014924143 -0.08167125 0.010947461 -0.14544183 0.13603799 -0.028091146 -0.046776835 0.064518414
0.09687258 -0.03631501 -0.06032647 -0.008197093 -0.11426103 -0.030036077 0.13879289 0.11069969
-0.06238169 -0.07208973 0.15183409 -0.16393715 -0.0131851705 0.022761362 -0.030117646 0.19132616
-0.12866873 -0.10561322 0.09132872 -0.10395287 -0.06641255 0.12281574 0.088390104 -0.13006923
0.10842975 -0.012353407 -0.068900265 0.14658241 0.12244737 -0.09954941 0.026958989 -0.024822438
0.07618124 0.017121905 -0.003950248 -0.02799971 -0.0034908063 0.12357673 0.18966235 -0.062572345
0.16242056 -0.063180886 0.08229299 -0.016855499 0.026046209 0.15649395 -0.069942795 -0.010865283
0.15071101 0.016491985 -0.08538902 0.01626885 -0.05269387 0.06623302 0.122315556 -0.09661331

lstm.weight_ih_l1 f4 [200, 50]
00000000: a267 31bc fc73 3cbe 2084 c1bc 0f39 f9bd
00000010: be01 803d 472d 863c 0a2f 3c3e c03c 1abe
00000020: 8757 03bd daa5 1c3d 42fb 413d 5933 f4bc
00000030: 7956 05be d65c 7f3e 2525 89bb 2cbd 0bbc
00000040: 2ec6 583e 2074 82be 23cf 903c 0aeb 77bd
00000050: 7442 6c3d 57a6 6e3e a718 533e d9c6 1cbd
00000060: 6c86 203e 0c45 0c3e 8b6f 9bbc 0fa6 de3d
00000070: c523 64be 72e7 8e3c f7be 803d 19ac 3f3e
00000080: 2bf0 793d 59ed 11bc 2af0 3dbe bcee 15bc
00000090: db01 75be d360 9ebc 2919 823e 7a8f 5cbd
000000a0: 792e b13c 632c c53d 45e6 02be 4240 26bc
000000b0: eeba 413e e8a6 a0bd 046c 823e 8366 183e
000000c0: 2126 6a3e 363f 4abe b4eb 3a3e f740 9fbc
000000d0: d745 5abd c6dd 3ebe b6ed 34bc 3d47 5bbd
000000e0: 91c7 883d dc47 103d 10c1 b1bd 8c60 80be
000000f0: f01d 103e b98b ffbd 709e 433d ead8 593e
00000100: 3f04 93be 86e7 8fbd a05b 32bd 069a 1fbe
00000110: c0c3 29be 4332 18be 534d 473e 24bd 1c3e
00000120: 0dac 453d 425b 77be d085 523e 7b85 683e
00000130: 51ee ffbc 7ac7 063d 97ff 11be 5ce7 55bd
00000140: fe75 b03d 9362 9b3d 76af 973d c9cd 3bbe
00000150: 4bb4 debc d08c 0d3e ebf8 72be 058c 27be
00000160: 86d8 593e d12d 6ebd 94c5 893c 2f6f 47be
00000170: e954 5a3c 650d 243e 753d 073b 0af3 72be
00000180: 5e66 f83d 478b 753b df5f 7f3d dbdb 483c
00000190: e3c2 313e 3c0d e3bd 1830 c2bd 6b33 e9bd
000001a0: b979 423e 2ec3 93bd af7b df3d 07f9 7cbe
000001b0: f987 563c ab00 29be f04e 093e a0e5 83be
000001c0: cab1 753d ba43 5f3e f3c0 1dbe 589c 0f3d
000001d0: 0df9 033e 24c8 b7bd 03e4 23be 442d 75be
000001e0: dd12 b53d 5b6e d33d 362f 6a3d 007d 26bd
000001f0: 15d9 543e a150 2e3c 0021 1937 4837 18bd
00000200: 41c0 1fbe 5d54 07be 03fa b53d 1e92 d33d
00000210: 297e 293e cb60 a7bd 0473 8ebd a047 c2bc
00000220: 7df9 85bd d813 ffbd f36c 163e 9244 a33c
00000230: fdcf c33d ffc1 813c fa89 43be 3fc9 493e
00000240: 0933 603d 68bd 433d 937d 8c3e dbbb 40bd
00000250: f790 473e cca8 7bbd c5fb 003e e054 2abc
00000260: 6baf 39be f11e 47be 34d7 4f3e 8a8a 31be
00000270: 36c2 50bd b872 1abe 8638 3dbd b2db acbc
00000280: 28b1 4c3e e6f3 86bc 5a21 eebd eebd ce3d
00000290: 2a2c 333b 8c28 dfbc f163 353d 6ca2 78be
000002a0: ab04 d83c 1ce6 c83c 56a0 5c3e fd30 623e
000002b0: 4980 a73d 8139 3abe 458f 003d 58c8 5e3e
000002c0: ab12 a03c ac34 4d3e 2492 49be 3e8d 3abe
000002d0: 2ff3 0c3e 2c00 c23c 7613 63bd 06f1 bcbd
000002e0: 5dbc 49be 9158 07bd 3b01 2cbe 9826 c3bc
000002f0: ecf1 863e e9b8 e9bd 1939 533e cf6f 6f3d
00000300: 5495 18be 0cee 53bd 7f35 4f3e 56f0 f2bc
00000310: a622 4a3e f5f2 f5bc 276a e03d f70a 2dbe
00000320: 5705 083c 77c1 253d ce64 3fbe 7fa4 3fbe
00000330: 8bc0 bc3d 2ed7 d73b 17d1 f8bc 981f 51be
00000340: 02e6 3dbb 735a 05be 0e5f bb3c 78e0 73be
00000350: 4d5a 3cbd 2628 553e 17ad fbbd 0d95 adbd
00000360: cf82 4e3e 587c 013d 9e88 453d 33fd 65bd
00000370: 624f 483b 3fc8 8b3e 9b37 cf3d c838 c1bd
00000380: 0641 973d ed3d a23d 9691 abbd 0a64 f53c
00000390: 8b34 0b3d 649d 32be b268 1a3e 867b 113e
000003a0: d87a d03d a122 4abd a3d2 9cbd d3b4 3e3e
000003b0: f566 14be 72f7 9cbd 271f 7a3e e64a 783c
000003c0: 7c80 9cbc fe6e 063e 7060 39bd d1e5 f13d
000003d0: 4772 243e aaf7 a13c bbd9 373e 685d 82bd
000003e0: 4c76 003d 5f06 46be 0d42 263e 309c 9e3d
000003f0: a81f 0fbe 987a 49be 990f ef3c ab64 4dbe
-0.010827931 -0.1840362 -0.023622572 -0.12169086 0.06250332 0.016379012 0.18377319 -0.15062237
-0.032065894 0.038244106 0.04735876 -0.02980964 -0.13021268 0.24937758 -0.004185336 -0.008528989
0.2116935 -0.2547922 0.017676895 -0.060526885 0.057680562 0.23305641 0.20614873 -0.038275573
0.15676278 0.13698214 -0.018974086 0.10871517 -0.2227927 0.017444346 0.06286424 0.18717994
0.061020058 -0.008906686 -0.18548647 -0.009151157 -0.23926489 -0.019333279 0.2540982 -0.053847767
0.021628605 0.09627607 -0.12783153 -0.010147156 0.18918964 -0.07844335 0.25473034 0.14882855
0.22866108 -0.19750676 0.18253976 -0.019440157 -0.05328926 -0.18639287 -0.011043003 -0.053534735
0.06678689 0.03522478 -0.08679402 -0.2507366 0.1407392 -0.12477822 0.04775852 0.21274152
-0.28714177 -0.070265815 -0.04354441 -0.15586099 -0.16578579 -0.14862923 0.1946309 0.15306526
0.048259784 -0.24155906 0.20558858 0.22707169 -0.031241568 0.03290508 -0.14257656 -0.052222595
0.08616255 0.07587161 0.074065134 -0.1834022 -0.02718558 0.13823247 -0.23727767 -0.16362007
0.21274003 -0.058149163 0.016817845 -0.19476007 0.013325908 0.16020735 0.0020635996 -0.23725525
0.121289 0.003746705 0.06234729 0.012259449 0.173595 -0.11086509 -0.094818294 -0.1138676
0.18991746 -0.07214962 0.10912263 -0.24704371 0.013093942 -0.16504161 0.13409019 -0.25761127
0.059984006 0.2180318 -0.15405636 0.03506121 0.12887974 -0.08973721 -0.16004948 -0.23943049
0.088414885 0.10323783 0.05717393 -0.040646553 0.20785935 0.010639341 9.127194e-06 -0.037162095
-0.15600683 -0.13215776 0.088855766 0.10330604 0.16552033 -0.08172759 -0.06955531 -0.023715794
-0.06541727 -0.12454957 0.14689998 0.019930158 0.09561155 0.015839575 -0.19095603 0.19705676
0.05473617 0.047788054 0.27439556 -0.047054153 0.19488893 -0.061440274 0.12596042 -0.010396212
-0.18133323 -0.19445397 0.20296937 -0.17338005 -0.050966464 -0.15082824 -0.046196483 -0.021100853
0.19989455 -0.016473722 -0.11627455 0.1009482 0.0027339556 -0.027241014 0.044284765 -0.24280709
0.026369413 0.024523787 0.21545538 0.22089 0.08178765 -0.18185998 0.031386632 0.21756113
0.019540152 0.20039624 -0.19684654 -0.18217942 0.13764642 0.023681723 -0.05543848 -0.09225659
-0.19700761 -0.033043448 -0.16797344 -0.023822114 0.26356447 -0.11412222 0.2062725 0.05845624
-0.14900714 -0.05174069 0.20235251 -0.029655617 0.1973978 -0.030023078 0.10957747 -0.16898714
0.008302054 0.040467706 -0.18690798 -0.18715094 0.09216412 0.0065869307 -0.03037314 -0.20422208
-0.0028976207 -0.13022785 0.022872474 -0.23816097 -0.045984555 0.20816097 -0.12288874 -0.08475695
0.20167087 0.031612724 0.04822599 -0.056149673 0.0030564894 0.27301213 0.10118028 -0.09434658
0.07385449 0.07921968 -0.08377378 0.029954929 0.033985656 -0.17442852 0.15079 0.14207277
0.101796806 -0.04934943 -0.07657363 0.18623666 -0.144924 -0.07664384 0.24425946 0.015154576
-0.019104235 0.13128278 -0.045257986 0.11811412 0.16059218 0.019771416 0.17954151 -0.06365472
0.031362817 -0.19338368 0.16236134 0.07744634 -0.1397692 -0.19675672 0.029182242 -0.20057933

lstm.weight_hh_l1 f4 [200, 50]
00000000: fc3b d43d 0064 70bd 597c 00be 6891 f03c
00000010: 2c91 80bd 9046 9fbd a096 3abc 8dff bfbd
00000020: e4b2 abbc ca57 cc3d f8f9 173d 888f 4ebd
00000030: 4ad8 c1bd 784f 223d 78f6 293d 9460 9e3d
00000040: 63b7 aebd ac28 b1bd 00ad 5b3a 3ae0 b83d
00000050: 0c0c 493d 9545 0a3e 10f9 ce3d 4a41 c4bd
00000060: 6995 dabd d0ff 083c 60d1 293c 3058 22bc
00000070: a086 b9bc 484e c6bd b667 f4bd 62cd 93bd
00000080: d244 8e3d 6ba3 febd 4009 2dbc e84f dfbd
00000090: ff7c fdbd 00ac 5cba dfd5 00be 02b7 00be
000000a0: 00a6 053b 584a a13c dc15 323d 262e f7bd
000000b0: bc0c cebd af6c d7bd 0063 dd3b 6ff0 c3bd
000000c0: a42b cc3d 700c 753c a460 a9bc 6e06 b4bd
000000d0: e104 98bd acff 613d dec2 f83d 5005 7b3c
000000e0: b9a6 d3bd c02e 483d 5f8d 95bd a419 0ebe
000000f0: 3494 283d 8c9c 783d c21b 05bd 9846 86bd
00000100: 0095 c93b d453 0f3d b835 c73c 1e20 a23d
00000110: f269 a13d 60d6 dabb 848a 0abd 92ad 06bd
00000120: 7409 d4bd c612 b53d 804c 973a 6ce3 0d3d
00000130: c87c ca3d 12c5 67bd 708e 943c 43be fdbd
00000140: ccfc 9f3d dc69 f3bc b00f 4ebd b533 06be
00000150: 0ff3 093e aaa1 e33d a828 d83c 86c8 8c3d
00000160: 342d 8e3d 7c0f 6e3d e806 c53d 086b 38bd
00000170: e6b4 87bd 8c3c d63d e7c9 0d3e d314 efbd
00000180: 5b6c e2bd 2a28 3bbd 70fb 543d 5182 a7bd
00000190: 00c0 70bc 582f 87bd c0b7 0a3b 0297 c9bd
000001a0: 9208 d83d 1a2b 68bd aa2b f93d 59ee 0a3e
000001b0: a262 31bd c307 95bd 781a afbc d098 f43c
000001c0: 9c88 923d 338a 033e 1652 5bbd 86c0 a7bd
000001d0: 8470 f3bd 06f8 a43d c616 2cbd 2282 26bd
000001e0: aeee 9a3d f88a 953d 50a2 74bd b24a df3d
000001f0: c02a fe3b 8a98 1abd 200e 0d3d 0aa9 fbbd
00000200: a63d 07bd 8468 97bc 105b 793d d8d1 643d
00000210: 9a2e c1bd 00e3 973a 7654 27bd df8d babd
00000220: 5805 593d 807b a83b 281d 993d b8c8 3a3d
00000230: ecfe 17bd 252a 94bd 649b 993d ae40 0bbe
00000240: b294 68bd 6ac6 18bd 30d9 203c 7090 4bbc
00000250: b0ee 56bc 26ca fd3d 2a97 bfbd c4ff 38bd
00000260: 807a fbbc 36ce 8d3d 4e44 d0bd 5080 0bbc
00000270: 7d73 083e 6267 ecbd e61c ae3d a8f7 d43c
00000280: 70c6 74bc 48da 253d 1e67 a13d ec3c dd3d
00000290: dc3f 573d 2c98 253d 48bf 8ebd 00cd 663a
000002a0: 7300 e5bd c4b4 03be bc2c 60bd 0c33 d2bc
000002b0: 94fc 97bd 0092 f2bb 2c7c 9abc e2d3 cd3d
000002c0: 047b 373d 1e78 c23d ba3c f63d 8089 9b3a
000002d0: a272 f7bd 4096 d0bd d00f 52bd f837 96bc
000002e0: e497 0bbe 5485 103d c273 f6bd 54f3 d9bc
000002f0: ba4c fe3d b289 8e3d c549 103e c815 443d
00000300: 18f1 9b3d 6a11 803d 4009 b83c d042 94bc
00000310: 802a da3b 18a7 e8bd 8a93 f83d 00f8 423d
00000320: e682 0abe 4074 823b c06d 88bb a7a7 d0bd
00000330: 20a8 453d 500a 373c 34fa 253d a563 f3bd
00000340: 90ab 63bd a67b ffbd ac79 323d 4c0c d23d
00000350: 20e4 813d 908c 5f3c a8c0 fbbc c870 e7bd
00000360: e0ca b83c 8833 cc3d 5e15 09be ee74 e93d
00000370: 5cf9 6e3d 6ce5 523d b08e 17bc 5716 033e
00000380: 2fd7 013e d8d8 0dbe 6fa0 043e 5005 573c
00000390: ca09 a8bd b2df 21bd c04a 4fbc 8e77 a03d
000003a0: ec0f cb3d 54b6 993d 55e9 e9bd 565e cfbd
000003b0: dcd3 ddbc 5095 0a3c 5e51 e23d 4707 a9bd
000003c0: 1ab5 b8bd ba20 90bd 00fa 883c e6bb f6bd
000003d0: 16c6 52bd c8ca debc 488a c83d ea38 34bd
000003e0: e63d f6bd 7019 74bc 59fa f1bd 8020 4b3c
000003f0: 4f96 073e db11 a2bd 729f f6bd d006 6dbc
0.103630036 -0.058689117 -0.12547435 0.02936621 -0.06277689 -0.077771306 -0.011388451 -0.09374914
-0.020959325 0.09977682 0.037103623 -0.05042985 -0.09465082 0.03962657 0.041494817 0.077332646
-0.08531072 -0.08650336 0.0008379966 0.09027143 0.049083754 0.13503106 0.10106099 -0.095827654
-0.10673029 0.008361772 0.01036486 -0.009908721 -0.022647202 -0.096829 -0.11933844 -0.07216908
0.0694672 -0.12433513 -0.010561287 -0.10903913 -0.12377357 -0.0008417964 -0.12581585 -0.12569812
0.0020393133 0.01968877 0.043477878 -0.12069349 -0.10061023 -0.105187766 0.0067561865 -0.095673434
0.09969261 0.014956579 -0.020675965 -0.08790289 -0.074228056 0.05517547 0.12146543 0.015321091
-0.10334534 0.04887271 -0.07302355 -0.13876969 0.041156963 0.06069617 -0.032497175 -0.065564334
0.0061517954 0.034992054 0.024317607 0.07916282 0.078815356 -0.0066783875 -0.033823505 -0.032880373
-0.103533655 0.088414714 0.0011543185 0.034640715 0.098870814 -0.056584425 0.018134326 -0.12389805
0.07811889 -0.029713564 -0.05030793 -0.13105662 0.13471626 0.11114819 0.026386574 0.06874184
0.069422156 0.058120236 0.09620458 -0.045023948 -0.066263005 0.10460767 0.13846551 -0.11673894
-0.110558234 -0.0456926 0.051997602 -0.08179153 -0.014694214 -0.06600827 0.0021166652 -0.098432556
0.1054851 -0.05668173 0.121665314 0.13567485 -0.043306954 -0.07276871 -0.021374926 0.029858023
0.071549624 0.12845688 -0.05354508 -0.08191018 -0.11886695 0.08055119 -0.042013906 -0.040651448
0.07565056 0.07301897 -0.059725106 0.10902919 0.007756561 -0.03774313 0.0344373 -0.12288101
-0.033017777 -0.018482454 0.06087786 0.055864185 -0.09432717 0.0011588037 -0.040852033 -0.09109091
0.05298361 0.0051416755 0.07476264 0.045601577 -0.037108347 -0.07234601 0.075003415 -0.13598892
-0.056782432 -0.037298597 0.009817407 -0.012424573 -0.013118431 0.123920724 -0.09355004 -0.045165792
-0.030698061 0.06924097 -0.10169278 -0.008514479 0.13325305 -0.11543156 0.08501606 0.025996998
-0.014939889 0.040491372 0.07880996 0.108026356 0.052551135 0.040428326 -0.06970078 0.0008804351
-0.11181726 -0.12861925 -0.054730162 -0.025659107 -0.07421222 -0.0074026585 -0.018858038 0.10050179
0.04479505 0.09495567 0.120233014 0.001186654 -0.12082411 -0.10184908 -0.05128461 -0.018337235
-0.1363216 0.0352834 -0.12033798 -0.026605286 0.12416978 0.06959857 0.14090641 0.047872335
0.07614344 0.062533215 0.022465348 -0.018098265 0.0066578984 -0.113599956 0.12137516 0.047599792
-0.13526496 0.0039811432 -0.004163474 -0.10188227 0.04825604 0.011171892 0.040521815 -0.1188424
-0.055583537 -0.12474756 0.043573067 0.10256252 0.063423395 0.013644353 -0.030731514 -0.11300808
0.022557676 0.09970766 -0.13387057 0.11399256 0.058343276 0.051488325 -0.009250328 0.1280149
0.12679742 -0.1385225 0.12951826 0.013123825 -0.08204992 -0.039519973 -0.012652099 0.07835303
0.09915146 0.075054795 -0.11421458 -0.10125415 -0.027078561 0.00845845 0.11050676 -0.08253341
-0.090189174 -0.07037492 0.016720772 -0.120475575 -0.05145844 -0.027196303 0.09792 -0.04399959
-0.12023525 -0.014898643 -0.11815328 0.012397885 0.13240932 -0.07913562 -0.120421305 -0.014466956

lstm.bias_ih_l1 f4 [200]
00000000: 093b 223d 0c63 1e3e f3a8 473d 5c61 44bd
00000010: 198f a83d caba feba 2ae0 4e3d aa37 1e3e
00000020: d098 433e 068a f738 e67f 2bbd 9226 453e
00000030: aedb c13d 4858 abb9 2063 4bbd 8fab 03bc
00000040: 9928 073e fdd2 d93d 4412 b33d 6498 053d
00000050: 029f 493d ed12 b9bb 38e2 353e 2829 1bbd
00000060: bf83 df3d b960 923d 4fcd 5a3e 1a25 163d
00000070: 92ef 283e b52e 293e 8f59 a93d aaa5 fa3c
00000080: d5d1 803d 400a b63d 0218 313e 7836 383e
00000090: 8f9d 36bd 8022 463b d5d7 683e 65cf 2cbc
000000a0: dbd1 7bbd 22e8 62bb a454 373e bb27 71bc
000000b0: d32c 433e cdec 7cbd 3fe1 f53c 06b8 7b3c
000000c0: 812b 133d 38f4 973d a8f7 f43c 6c41 ca3d
000000d0: f765 023e 2c34 3b3d bcb4 013d f2e4 a43d
000000e0: f053 08be f020 d03d cd40 07be d8c7 763d
000000f0: dee2 abbd 467b ec3d 9479 a2bc de4c 923d
00000100: 5791 0c3e 9c38 a73d 31ee f7bd b0e6 133c
00000110: 006b fcba 2718 ddbd f0f4 3ebc dcaf 26bd
00000120: 46a2 fb3d 6435 09bd f8d5 a13c 32b5 f43d
00000130: 7822 e43c 9443 113d f0fa 093c 3843 3d3d
00000140: 3027 163d 3c6b 0ebe d0d5 143d 7a6e ca3d
00000150: 530a 083e 589a a1bc 5ecd 10be fcae eabd
00000160: 9094 35bc 604b b9bb 1e91 00be 0006 7a3b
00000170: f0af c93d f8d5 99bd f896 96bc 74d0 383d
00000180: acf0 98bd f3b5 f6bd 207b 72bd 5655 26bd
00000190: 771d 903c 5945 30bc fd06 19bd 869e 70bd
000001a0: 32de adbd 756d 39bd 6ae8 07bd 7425 163d
000001b0: 8a6f 053c ec4b d3bd 459c fbbd 991a cb3d
000001c0: d88e 223e b49b 0dbd 42ed d6bd f6f5 463c
000001d0: 4328 dabb 8e0a fd3c f5c2 103c 906d 413d
000001e0: 0527 8a3d 066b 713d 6148 f63d 2c6c b23d
000001f0: 78a2 d93d cb62 eb3d 2ea2 28bd 0503 e33d
00000200: d94e 3c3e 98f7 eebd 1ee6 bd3d 7629 1e3e
00000210: c287 c53d 834a 85bd 49e5 aabd 8042 bf3d
00000220: c9a0 dcbd b6d2 053e dd35 f5bd 5614 ef3d
00000230: 686d 243e b789 e33c 79bc 8cbd 2b10 253e
00000240: 1ee8 c63d 260e 51bc 4f62 96bd 86a3 9c3c
00000250: 0665 ce3d 0ea8 993c 9cc5 fd3c 210d 82bd
00000260: 47a7 623d 8795 683e 4f05 cd3d d407 05bc
00000270: 9aaf d33d 5237 153d 46e8 a23d 31ac 503e
00000280: 2372 2d39 288f 29bd f7b7 d83d c5bc 993d
00000290: 7d2c 48bd 1c42 0c3e f99a fa3d add0 dbbc
000002a0: 6323 8a3d ee17 5d3e 9355 623e e558 983d
000002b0: 28f2 d33c 21d5 4d3e 243d e13d 8126 af3d
000002c0: a7ea 593e 0c6c c93d 2518 a83d 7035 b93d
000002d0: 7f63 e23d 4385 a33d 4927 3b3e 82e9 333e
000002e0: 4b7f c2bb 1568 c4bc 86ee 693c 0328 513e
000002f0: 8191 733e c686 293e 2d47 ecbd 5bee ec3d
00000300: 1d79 4d3e e457 2f3e d386 a73d 1752 0b3e
00000310: b537 b33d a69f ba3d c095 1cbd efad 37bd
0.03960708 0.15467471 0.048745107 -0.04794441 0.08230419 -0.001943433 0.05050675 0.15450922
0.19101262 0.00011803587 -0.04187002 0.19252995 0.09465729 -0.00032681436 -0.04965508 -0.008036508
0.1319908 0.10635946 0.08743718 0.032616034 0.049223907 -0.005648008 0.17762077 -0.037881047
0.109138004 0.07147355 0.21367382 0.036656477 0.16497639 0.16521724 0.08269035 0.030596573
0.06290022 0.08888674 0.17294315 0.17989528 -0.044583853 0.0030232966 0.22738583 -0.010547494
-0.06147943 -0.0034623225 0.17903382 -0.014718945 0.19060068 -0.06174927 0.030014632 0.015363699
0.03593016 0.07419628 0.029903248 0.098757595 0.12734209 0.04570405 0.031666502 0.0805148
-0.1331327 0.10162532 -0.13208313 0.06024918 -0.08392881 0.1154695 -0.019833364 0.071435675
0.13727318 0.08165094 -0.12105978 0.009027168 -0.0019257963 -0.10795622 -0.011655077 -0.040695056
0.122868106 -0.033498183 0.019755349 0.11948623 0.027848467 0.03546484 0.008421645 0.046206683
0.036658466 -0.13908094 0.03633672 0.09884353 0.13285188 -0.019726917 -0.14140841 -0.11459157
-0.011082783 -0.0056547374 -0.12555358 0.003815055 0.098480105 -0.075115144 -0.018382534 0.04512067
-0.074677795 -0.12046423 -0.059199452 -0.040608726 0.017592175 -0.010758721 -0.03736018 -0.05874493
-0.08489646 -0.045270402 -0.03318063 0.03665681 0.008144269 -0.10317215 -0.122856654 0.099171825
0.15874803 -0.03457232 -0.10494472 0.012143603 -0.0066576316 0.030888822 0.008835544 0.047223628
0.06745724 0.058939956 0.12025524 0.087120384 0.106266916 0.11493453 -0.04117029 0.1108456
0.18389453 -0.116683185 0.09272407 0.15445504 0.096450344 -0.065083526 -0.08344514 0.09338856
-0.10772855 0.13068661 -0.11973164 0.11673801 0.1605736 0.027775628 -0.06871886 0.16119449
0.097122416 -0.012759721 -0.073429696 0.019120943 0.100778624 0.018756893 0.030978017 -0.063501604
0.05533531 0.2271329 0.10010778 -0.008119542 0.10336228 0.03642971 0.07954459 0.20378186
0.00016541085 -0.04139629 0.105819635 0.07506708 -0.048870552 0.13697094 0.1223659 -0.026832903
0.06745031 0.2159116 0.22102956 0.0743883 0.025872305 0.20100833 0.1099799 0.08552266
0.21280919 0.098350614 0.0820773 0.090433955 0.110541336 0.07984402 0.18276705 0.17569545
-0.0059355847 -0.023975411 0.01427806 0.2042542 0.23785974 0.16555318 -0.11537013 0.115689
0.20065732 0.17123371 0.081800126 0.13605534 0.0875086 0.09112482 -0.03822875 -0.04484361

lstm.bias_hh_l1 f4 [200]
00000000: afa9 ee3d c8a4 0c3e 046f 0e3e 32fd 973d
00000010: b6a7 443d fe2f bebc 50c6 193d 447e 3b3e
00000020: c8b5 243e 4fb1 8bbc b149 2a3e 6587 efba
00000030: 4a24 bbbc 38cc 1f3e 16df 063e d05e 61bd
00000040: 8701 4b3e bb2b e03d 6606 193e ce1e 1dbd
00000050: e050 453e bb47 4f3d d502 743d 3433 133e
00000060: 8dc1 d4bc 46cc 463d 7dc9 4f3e da46 043e
00000070: cd8c be3d 07f4 233e 7cb8 2abc ae85 83bc
00000080: 204b 4abd 2a73 a33d 2eae 3b3e 269f 583e
00000090: 21d8 1dbd ade0 4b3d 744f 6d3d 4216 f03d
000000a0: be64 aabd 0ed4 c1bc e590 0b3e c8d9 433e
000000b0: e54b b03d 75f9 023d e334 193e c893 69bd
000000c0: df75 2d3d 1ff6 113d 24b1 6bbd 6ef6 0dbd
000000d0: e368 0dbe a475 a33d 08fc dabc a0f6 5fbd
000000e0: 769c eb3d a224 9e3d 3271 d3bd ed67 0dbe
000000f0: 75b0 8ebd 8566 073e bb93 9bbd 8193 ebbd
00000100: 8a34 ca3d af16 ffbd 278e bbbd e001 2cbd
00000110: 4877 cbbd 244c 9dbc f4b4 9fbc c0d8 843c
00000120: 7d29 0d3e 9453 e4bc 6a9a de3d ae12 08bd
00000130: 076e b5bd 617b 99bd f6d4 b93d 7ca9 e0bc
00000140: e457 0d3d 2b9f 073e e090 bb3c 2e77 cb3d
00000150: dee7 e23d 0c1d 2cbd c0dd 61bc f8bb f43c
00000160: c0b2 5bbb 042b b43d b7f7 033e 0664 ef3d
00000170: aff1 0c3e 6c37 b43d 28f8 58bd 3a22 f3bd
00000180: 10af 333d 866b fa3d 1f19 f8bd 1090 28bd
00000190: d41c d13d fda8 ff3d 05c4 363d 5224 67bd
000001a0: f3b0 12be 6d3b ce3d 6fa8 b2bd 0c17 8f3d
000001b0: 6ee2 ebbc e6f6 dfbd 9dfe c3bd 85ee a4bd
000001c0: e103 c4ba eacb f03d c072 a63d bc26 a9bd
000001d0: f2d3 3d3c 90dc 5dbc bc85 d1bd 3414 f83c
000001e0: 37e3 943d 76d8 04be 2415 13be 2e6d cf3d
000001f0: 5601 aabd 4d4b 98bc 6ff9 97bd bb69 11bc
00000200: 74f1 24bc 5ce4 263d 073c 013e 8b1d 8bbd
00000210: a4a2 983d 6834 3c3d 61f2 e13d e7a8 173d
00000220: b32f 943d d596 aebd a06a debb 90f9 863d
00000230: c0b7 eabc c5a6 a63d 4b50 ab3d e589 c5bd
00000240: f4c0 1c3e d2e3 c23b 89d1 96bd 0480 093e
00000250: 7d19 73bd aa80 1bbe f331 c43c 8d12 163e
00000260: 9cd8 c33d fec0 e73d 2e8c 0b3e eef6 12bc
00000270: edb7 543e 8311 5d3e cd4b 003e 2eb7 26bd
00000280: 7267 543e e456 3e3e e5a6 fb3d 7f4b f83c
00000290: 5996 8b3d 3e41 073e 421f 203d bbb8 6c3e
000002a0: 808b 1d3e 3b98 0abd 60ee 473d 69a1 223e
000002b0: 78c1 633d 8f4d 2b3e 91b2 bfbb 2987 0a3e
000002c0: 8f4d 383e ffaa f73c aa74 123e 14fc be3d
000002d0: 834c bd3d e69f 203e 762b ed3d b2e2 3f3e
000002e0: a243 653e d7c2 993d 0552 893d 84d6 58bd
000002f0: b957 a43d 5da6 70bc 9db4 07bc bfee 143d
00000300: ad41 db3d 97b8 333e cadb 593e 8344 6cbd
00000310: 017e 153e ba14 f03d 033a c93b c5fd e83c
0.11653458 0.13734734 0.13909537 0.0742134 0.048011504 -0.023216244 0.03754264 0.18309885
0.16084969 -0.01705232 0.16629674 -0.0018274604 -0.022844452 0.15605247 0.13171038 -0.05502206
0.19824801 0.10945841 0.14943847 -0.038359456 0.19269133 0.050605517 0.059573013 0.14375001
-0.025971198 0.048534654 0.20291705 0.12917653 0.09304199 0.16011058 -0.010419961 -0.016054954
-0.04938805 0.0798095 0.18328163 0.2115446 -0.038536195 0.049774814 0.0579371 0.11722995
-0.08319996 -0.023660686 0.13629492 0.19126046 0.08608226 0.031976182 0.14961581 -0.0570257
0.04234874 0.03563511 -0.05754198 -0.03465884 -0.13809542 0.079814225 -0.026731506 -0.05467856
0.11504452 0.07721831 -0.10324325 -0.13809176 -0.0696725 0.13222702 -0.07596537 -0.115027435
0.09873302 -0.124554984 -0.09157973 -0.041993976 -0.099348605 -0.019201346 -0.019495465 0.016216636
0.13785358 -0.027871884 0.10869296 -0.03322094 -0.08858877 -0.07494236 0.09073822 -0.027424566
0.034507647 0.13244312 0.02289623 0.09934841 0.110793814 -0.04201989 -0.0137857795 0.029874787
-0.0033523291 0.08797267 0.12887464 0.11689 0.1376407 0.087996334 -0.052971035 -0.118717626
0.043868124 0.1222754 -0.121141665 -0.041153014 0.10210577 0.12483404 0.044620533 -0.056431122
-0.14325313 0.10069928 -0.087235324 0.06986818 -0.028794494 -0.10935764 -0.09570048 -0.080533065
-0.0014954769 0.117576435 0.081273556 -0.08259341 0.011586176 -0.013541356 -0.10230586 0.030283071
0.072699 -0.12973198 -0.14363533 0.10128246 -0.08301036 -0.018590594 -0.074206226 -0.008875306
-0.010067333 0.040745124 0.12620555 -0.06792744 0.07452896 0.045948416 0.11032558 0.037026312
0.072356604 -0.08524863 -0.006787613 0.06590569 -0.028652072 0.081372775 0.08364924 -0.09645442
0.15307981 0.0059475685 -0.073641844 0.1342774 -0.05935048 -0.151858 0.023949599 0.14655514
0.09562799 0.11316107 0.13627693 -0.008970005 0.20773287 0.21588711 0.12528916 -0.040702038
0.20742586 0.18587834 0.12287692 0.030309437 0.06815786 0.13208482 0.03909231 0.23117344
0.15385246 -0.033836585 0.048811316 0.15881886 0.055604428 0.16728805 -0.005850144 0.13528122
0.17998336 0.030232904 0.14302316 0.09325424 0.09243109 0.15685996 0.11580555 0.18738821
0.22389081 0.07507866 0.06705097 -0.052938953 0.08024544 -0.014688102 -0.008282808 0.0363605
0.10705886 0.17550884 0.21275249 -0.057682525 0.14598848 0.11722703 0.0061409487 0.02844132

fc.weight f4 [1, 50]
00000000: b411 36be 4623 603e 2783 173e 7ae1 163e
00000010: 05b4 123e f737 313e dfee 7f3e ba77 4b3e
00000020: 68c0 5fbe 3b99 46be 0342 3e3e 21d3 1ebe
00000030: 888a 3cbe cd4f 3dbe 83c5 69be 6f8f 863e
00000040: 1028 2e3e 0d96 063e ee85 373e d6f3 5ebe
00000050: 357b 1b3e 5e4b 4dbe 4a07 2b3e 8122 f4bd
00000060: d293 01be 5592 253e 7c30 fabd 5b8c 25be
00000070: 2424 2bbe dbb3 61be d566 17be f4c2 32be
00000080: abc5 323e 0f85 393e 6ea1 023e 56e2 84be
00000090: 0376 5ebe 97ea 71be bbe1 253e fb43 0dbe
000000a0: 2054 dd3d 2b79 233e 79ab 1b3e 623b 5bbe
000000b0: 7a53 10be 986c 69be 7b6d 0cbe b9a2 493e
000000c0: c717 40be 4c68 353e
-0.1778019 0.21888456 0.14796124 0.1473445 0.14326485 0.17306505 0.24993466 0.19869891
-0.21850741 -0.1939439 0.18579869 -0.15510227 -0.1841222 -0.18487473 -0.22829251 0.26281306
0.1700747 0.13143177 0.17922184 -0.21772704 0.15183719 -0.20048282 0.16702 -0.119206436
-0.12654045 0.16169102 -0.12216279 -0.16166823 -0.16713005 -0.22041266 -0.14785321 -0.17457181
0.17458217 0.18117164 0.12756893 -0.2595393 -0.21724705 -0.23624645 0.1619939 -0.13795464
0.10807061 0.1596419 0.1520213 -0.21409371 -0.14094344 -0.22795331 -0.13713638 0.1969098
-0.1875907 0.17715567
